dataset/B/B_0.npy (npy, 15248 bytes, 1 tensors)

array f8 [30, 63]
0.40375521779060364 0.7227393388748169 7.058021083139465e-07 0.5056394934654236 0.6823163032531738 -0.059542812407016754 0.580154299736023 0.5901044607162476
-0.08583575487136841 0.6247731447219849 0.49615219235420227 -0.10757073014974594 0.677464485168457 0.42722275853157043 -0.12833815813064575 0.526467502117157
0.3885359764099121 -0.042001254856586456 0.5708556175231934 0.2661627531051636 -0.07731719315052032 0.5976176261901855 0.18788793683052063 -0.10808329284191132
0.6203103065490723 0.11826926469802856 -0.1309524029493332 0.4668315052986145 0.35768258571624756 -0.03650996461510658 0.47763633728027344 0.21380187571048737
-0.06930866837501526 0.4828950762748718 0.12046751379966736 -0.09757039695978165 0.48591455817222595 0.04465267062187195 -0.11751116812229156 0.4102037250995636
0.3619720935821533 -0.03923412039875984 0.4088220000267029 0.22096508741378784 -0.07545751333236694 0.4073050618171692 0.12354564666748047 -0.1024307906627655
0.4077497124671936 0.04188644886016846 -0.1194472685456276 0.35653936862945557 0.39367419481277466 -0.04758089780807495 0.33059242367744446 0.28699228167533875
-0.08537209779024124 0.3108683228492737 0.21104338765144348 -0.10666948556900024 0.29521191120147705 0.14044329524040222 -0.11878170073032379 0.3995935916900635
0.7260529398918152 7.726288231424405e-07 0.5016588568687439 0.6890506148338318 -0.06308790296316147 0.5791727304458618 0.5963529348373413 -0.09141074120998383
0.6242302060127258 0.4997846484184265 -0.11447862535715103 0.6756448149681091 0.4263543486595154 -0.13644027709960938 0.526993453502655 0.3906667232513428
-0.04747844859957695 0.5737420916557312 0.2652723491191864 -0.08403659611940384 0.6027354001998901 0.1843429058790207 -0.11447542160749435 0.6278231739997864
0.11422702670097351 -0.13668367266654968 0.46543821692466736 0.3601906895637512 -0.04076066613197327 0.4764541983604431 0.21250088512897491 -0.07395793497562408
0.4835042953491211 0.11712750792503357 -0.10131267458200455 0.4889897406101227 0.03942042589187622 -0.12020351737737656 0.40794262290000916 0.3660541772842407
-0.04234166070818901 0.40429580211639404 0.2241884469985962 -0.07850643247365952 0.40241312980651855 0.12538567185401917 -0.10414770245552063 0.4034244120121002
0.04134604334831238 -0.12020960450172424 0.35391730070114136 0.40122175216674805 -0.04988597333431244 0.32604900002479553 0.2950949966907501 -0.0879104882478714
0.30647748708724976 0.21904011070728302 -0.10845491290092468 0.29169541597366333 0.14692315459251404 -0.119737908244133 0.40328243374824524 0.7276513576507568
7.108881163730985e-07 0.5039474964141846 0.6887931823730469 -0.05690643563866615 0.5798372030258179 0.5920522212982178 -0.08093637228012085 0.6246325373649597
0.49650707840919495 -0.10103444010019302 0.6751419305801392 0.42683276534080505 -0.12066059559583664 0.5242953300476074 0.38754159212112427 -0.04097672924399376
0.5701414942741394 0.26443809270858765 -0.07663150876760483 0.5984841585159302 0.18650327622890472 -0.10761696845293045 0.6227460503578186 0.11739110946655273
-0.13026630878448486 0.4638487696647644 0.35899966955184937 -0.03741569072008133 0.47554025053977966 0.2088433802127838 -0.06987275183200836 0.48328113555908203
0.1112317442893982 -0.09924939274787903 0.4889296293258667 0.029636651277542114 -0.119989775121212 0.40733224153518677 0.3672894239425659 -0.0415303036570549
0.4045736491680145 0.22601810097694397 -0.07724238187074661 0.40360546112060547 0.12699607014656067 -0.10522233694791794 0.4048503637313843 0.04169994592666626
-0.12301864475011826 0.353639155626297 0.4037291705608368 -0.05100499466061592 0.32738345861434937 0.29782962799072266 -0.08883021771907806 0.30677688121795654
0.22137682139873505 -0.11024186760187149 0.29002490639686584 0.1488790512084961 -0.12227906286716461 0.4035760760307312 0.7266180515289307 7.861452786528389e-07
0.504625141620636 0.6843363642692566 -0.06419093906879425 0.5789437294006348 0.5904351472854614 -0.09335377812385559 0.6237552165985107 0.4955315887928009
-0.11752566695213318 0.6768122315406799 0.424090713262558 -0.141313374042511 0.5236729383468628 0.38866284489631653 -0.04945690929889679 0.5694555640220642
0.2656915485858917 -0.0892893522977829 0.5978705883026123 0.18691283464431763 -0.12391316145658493 0.6225770115852356 0.11576253175735474 -0.1489730328321457
0.463620662689209 0.36105790734291077 -0.043610572814941406 0.4751509428024292 0.20962561666965485 -0.0797019898891449 0.4831258952617645 0.1103602945804596
-0.11188165098428726 0.4889080226421356 0.027490228414535522 -0.13471487164497375 0.4069918096065521 0.36985474824905396 -0.04600706696510315 0.4044446349143982
0.2280125617980957 -0.08459062874317169 0.4039246737957001 0.1278320848941803 -0.11390756815671921 0.405905157327652 0.041579753160476685 -0.1326325237751007
0.3529778718948364 0.40502113103866577 -0.0543677993118763 0.32822921872138977 0.29860758781433105 -0.09392416477203369 0.3083087205886841 0.22235864400863647
-0.11589299142360687 0.2916055917739868 0.15016543865203857 -0.1285172700881958 0.39214521646499634 0.7237625122070312 9.81708467406861e-07 0.49809515476226807
00000000: 0000 0020 20d7 d93f 0000 0040 ae20 e73f
00000010: 0000 0040 cbae a73e 0000 00e0 322e e03f
00000020: 0000 0000 89d5 e53f 0000 0040 657c aebf
00000030: 0000 00c0 9f90 e23f 0000 00c0 22e2 e23f
00000040: 0000 0000 55f9 b5bf 0000 0040 24fe e33f
00000050: 0000 0020 f5c0 df3f 0000 0060 c189 bbbf
00000060: 0000 0000 caad e53f 0000 0020 9e57 db3f
00000070: 0000 0080 626d c0bf 0000 0060 d2d8 e03f
00000080: 0000 0000 c6dd d83f 0000 0040 3081 a5bf
00000090: 0000 0000 7344 e23f 0000 0080 cf08 d13f
000000a0: 0000 0040 0fcb b3bf 0000 0000 af1f e33f
000000b0: 0000 0040 b60c c83f 0000 00c0 58ab bbbf
000000c0: 0000 0000 95d9 e33f 0000 0000 e546 be3f
000000d0: 0000 0060 0cc3 c0bf 0000 0040 91e0 dd3f
000000e0: 0000 0080 45e4 d63f 0000 0020 6fb1 a2bf
000000f0: 0000 0000 9891 de3f 0000 0020 dc5d cb3f
00000100: 0000 0080 36be b1bf 0000 00c0 c0e7 de3f
00000110: 0000 0080 f5d6 be3f 0000 00a0 5ffa b8bf
00000120: 0000 0060 3919 df3f 0000 0000 b7dc a63f
00000130: 0000 0040 3615 bebf 0000 0020 c740 da3f
00000140: 0000 0000 8d2a d73f 0000 00a0 7e16 a4bf
00000150: 0000 00c0 232a da3f 0000 0080 9548 cc3f
00000160: 0000 0000 2f51 b3bf 0000 0040 4911 da3f
00000170: 0000 0000 b0a0 bf3f 0000 0080 e738 babf
00000180: 0000 0040 9218 da3f 0000 0000 2472 a53f
00000190: 0000 00a0 1894 bebf 0000 0080 8ad1 d63f
000001a0: 0000 0040 f531 d93f 0000 0000 865c a8bf
000001b0: 0000 0020 6d28 d53f 0000 00e0 145e d23f
000001c0: 0000 0020 f2da b5bf 0000 0040 44e5 d33f
000001d0: 0000 0040 7803 cb3f 0000 0000 b14e bbbf
000001e0: 0000 0080 c0e4 d23f 0000 00c0 0bfa c13f
000001f0: 0000 0040 7a68 bebf 0000 0000 f192 d93f
00000200: 0000 0060 d33b e73f 0000 00c0 d4ec a93e
00000210: 0000 00e0 960d e03f 0000 00e0 b30c e63f
00000220: 0000 0060 8726 b0bf 0000 0040 9588 e23f
00000230: 0000 00c0 5215 e33f 0000 00c0 b166 b7bf
00000240: 0000 00a0 b1f9 e33f 0000 00c0 78fc df3f
00000250: 0000 00a0 784e bdbf 0000 00e0 e19e e53f
00000260: 0000 00c0 6349 db3f 0000 0000 e076 c1bf
00000270: 0000 0060 21dd e03f 0000 0000 af00 d93f
00000280: 0000 0060 184f a8bf 0000 0060 185c e23f
00000290: 0000 00e0 38fa d03f 0000 0020 6c83 b5bf
000002a0: 0000 00c0 9b49 e33f 0000 0060 8c98 c73f
000002b0: 0000 00e0 424e bdbf 0000 00a0 2017 e43f
000002c0: 0000 0080 fb3d bd3f 0000 00c0 d97e c1bf
000002d0: 0000 0060 bdc9 dd3f 0000 0040 5d0d d73f
000002e0: 0000 0000 95de a4bf 0000 00c0 397e de3f
000002f0: 0000 00a0 3a33 cb3f 0000 0040 e8ee b2bf
00000300: 0000 0000 bcf1 de3f 0000 0080 11fc bd3f
00000310: 0000 00a0 a0ef b9bf 0000 00a0 9b4b df3f
00000320: 0000 0000 ea2e a43f 0000 0060 a8c5 bebf
00000330: 0000 0060 bb1b da3f 0000 0080 6e6d d73f
00000340: 0000 0060 cead a5bf 0000 0080 fbdf d93f
00000350: 0000 0000 35b2 cc3f 0000 0060 ff18 b4bf
00000360: 0000 0000 23c1 d93f 0000 0040 a30c c03f
00000370: 0000 0080 6ca9 babf 0000 00a0 b4d1 d93f
00000380: 0000 0000 4f2b a53f 0000 0080 0ec6 bebf
00000390: 0000 00c0 94a6 d63f 0000 0000 9ead d93f
000003a0: 0000 0080 a78a a9bf 0000 00a0 fcdd d43f
000003b0: 0000 0020 d6e2 d23f 0000 0040 4d81 b6bf
000003c0: 0000 00c0 539d d33f 0000 00a0 8109 cc3f
000003d0: 0000 0080 b3c3 bbbf 0000 0040 23ab d23f
000003e0: 0000 00c0 60ce c23f 0000 00c0 24a7 bebf
000003f0: 0000 0020 61cf d93f 0000 0080 eb48 e73f
00000400: 0000 0080 7bda a73e 0000 0080 5620 e03f
00000410: 0000 0000 980a e63f 0000 0020 d722 adbf
00000420: 0000 00c0 068e e23f 0000 0080 17f2 e23f
00000430: 0000 0000 3fb8 b4bf 0000 0060 fdfc e33f
00000440: 0000 00a0 c5c6 df3f 0000 00a0 64dd b9bf
00000450: 0000 0040 c39a e53f 0000 0060 3a51 db3f
00000460: 0000 00e0 9ce3 bebf 0000 0000 07c7 e03f
00000470: 0000 0040 7bcd d83f 0000 00e0 e6fa a4bf
00000480: 0000 0060 993e e23f 0000 00c0 8dec d03f
00000490: 0000 0060 1f9e b3bf 0000 0040 c826 e33f
000004a0: 0000 00e0 56df c73f 0000 0020 c98c bbbf
000004b0: 0000 0020 89ed e33f 0000 0000 580d be3f
000004c0: 0000 0000 91ac c0bf 0000 00c0 b2af dd3f
000004d0: 0000 00c0 d9f9 d63f 0000 0040 2628 a3bf
000004e0: 0000 0060 406f de3f 0000 0040 61bb ca3f
000004f0: 0000 0040 2ee3 b1bf 0000 0000 14ee de3f
00000500: 0000 0000 af79 bc3f 0000 0080 6868 b9bf
00000510: 0000 0080 9f4a df3f 0000 0000 1259 9e3f
00000520: 0000 0060 a6b7 bebf 0000 0040 bb11 da3f
00000530: 0000 0080 ab81 d73f 0000 00c0 7543 a5bf
00000540: 0000 00e0 88e4 d93f 0000 0040 29ee cc3f
00000550: 0000 0020 28c6 b3bf 0000 0000 acd4 d93f
00000560: 0000 0040 6841 c03f 0000 00e0 d9ef babf
00000570: 0000 0080 11e9 d93f 0000 0000 b259 a53f
00000580: 0000 0060 267e bfbf 0000 0020 06a2 d63f
00000590: 0000 00e0 b2d6 d93f 0000 00a0 531d aabf
000005a0: 0000 00c0 d9f3 d43f 0000 0000 a40f d33f
000005b0: 0000 00c0 93bd b6bf 0000 0080 3ba2 d33f
000005c0: 0000 0060 1356 cc3f 0000 00a0 cf38 bcbf
000005d0: 0000 00a0 c48f d23f 0000 0000 780e c33f
000005e0: 0000 0040 ae4d bfbf 0000 00c0 30d4 d93f
000005f0: 0000 0080 7440 e73f 0000 00c0 ef60 aa3e
00000600: 0000 00a0 e325 e03f 0000 0060 15e6 e53f
00000610: 0000 0040 d16e b0bf 0000 0000 b586 e23f
00000620: 0000 0040 d8e4 e23f 0000 0080 08e6 b7bf
00000630: 0000 0080 cdf5 e33f 0000 0020 cab6 df3f
00000640: 0000 0080 2916 bebf 0000 0020 72a8 e53f
00000650: 0000 0060 4d24 db3f 0000 0080 8e16 c2bf
00000660: 0000 00c0 edc1 e03f 0000 0020 dadf d83f
00000670: 0000 0080 6a52 a9bf 0000 00e0 fa38 e23f
00000680: 0000 0020 1701 d13f 0000 00c0 aadb b6bf
00000690: 0000 0080 c121 e33f 0000 0080 c2ec c73f
000006a0: 0000 00e0 c5b8 bfbf 0000 00a0 26ec e33f
000006b0: 0000 0000 9da2 bd3f 0000 0060 8c11 c3bf
000006c0: 0000 0000 f6ab dd3f 0000 00a0 921b d73f
000006d0: 0000 0000 2054 a6bf 0000 0080 df68 de3f
000006e0: 0000 0020 03d5 ca3f 0000 0080 5967 b4bf
000006f0: 0000 00e0 88eb de3f 0000 0080 9240 bc3f
00000700: 0000 00a0 46a4 bcbf 0000 00e0 444a df3f
00000710: 0000 0000 6626 9c3f 0000 0040 563e c1bf
00000720: 0000 0060 270c da3f 0000 0040 b3ab d73f
00000730: 0000 0000 3d8e a7bf 0000 00c0 6be2 d93f
00000740: 0000 0000 842f cd3f 0000 0040 bba7 b5bf
00000750: 0000 00e0 e6d9 d93f 0000 0040 cd5c c03f
00000760: 0000 00e0 0b29 bdbf 0000 00a0 59fa d93f
00000770: 0000 0000 f149 a53f 0000 0040 1afa c0bf
00000780: 0000 0080 3097 d63f 0000 00c0 ddeb d93f
00000790: 0000 00a0 18d6 abbf 0000 0020 b501 d53f
000007a0: 0000 0000 631c d33f 0000 0000 6a0b b8bf
000007b0: 0000 0080 54bb d33f 0000 0080 3f76 cc3f
000007c0: 0000 00c0 29ab bdbf 0000 0080 aaa9 d23f
000007d0: 0000 0000 9f38 c33f 0000 0000 4173 c0bf
000007e0: 0000 0040 e818 d93f 0000 0000 1029 e73f
000007f0: 0000 00e0 6778 b03e 0000 0080 cae0 df3f
