dataset/B/B_1.npy (npy, 15248 bytes, 1 tensors)

array f8 [30, 63]
00000000: 0000 0040 2735 db3f 0000 00e0 9fe1 e73f
00000010: 0000 0020 e8e9 af3e 0000 00a0 3d79 df3f
00000020: 0000 00c0 dec4 e73f 0000 0000 58f4 a7bf
00000030: 0000 0000 9314 e23f 0000 0000 4954 e53f
00000040: 0000 0080 846d b0bf 0000 00a0 75ee e23f
00000050: 0000 00c0 d98e e23f 0000 0060 413c b4bf
00000060: 0000 0000 28f4 e23f 0000 0000 cc8f df3f
00000070: 0000 0080 8dbc b7bf 0000 0020 6a2a e13f
00000080: 0000 00c0 2819 e13f 0000 00a0 35fc a2bf
00000090: 0000 0000 4a70 e23f 0000 0080 1ec6 db3f
000000a0: 0000 00e0 dabf b3bf 0000 00a0 aa67 e33f
000000b0: 0000 0040 1649 d73f 0000 0040 78dc b9bf
000000c0: 0000 00c0 fe3c e43f 0000 00c0 479e d33f
000000d0: 0000 0000 21df bcbf 0000 0080 f6ed de3f
000000e0: 0000 00c0 df5f e03f 0000 0000 306c a2bf
000000f0: 0000 00c0 3edd df3f 0000 0000 e58a d83f
00000100: 0000 0040 69e2 b4bf 0000 0040 ca54 e03f
00000110: 0000 0060 e3f4 d33f 0000 0000 a9d2 babf
00000120: 0000 0080 dfb9 e03f 0000 0000 b74c cf3f
00000130: 0000 0040 7fba bcbf 0000 00a0 4850 db3f
00000140: 0000 00e0 7590 e03f 0000 00e0 8399 a4bf
00000150: 0000 0020 c80f dd3f 0000 00a0 f762 de3f
00000160: 0000 0080 c80e bbbf 0000 0000 8143 dd3f
00000170: 0000 00a0 77ff e13f 0000 0000 2a97 bbbf
00000180: 0000 0040 07ef dc3f 0000 00c0 25c5 e33f
00000190: 0000 0060 91b8 b6bf 0000 0000 4a8b d73f
000001a0: 0000 0000 4766 e13f 0000 0080 b908 a8bf
000001b0: 0000 00c0 5e76 d93f 0000 0080 6f39 e03f
000001c0: 0000 0000 0a14 b9bf 0000 0000 4844 da3f
000001d0: 0000 0020 fe79 e23f 0000 00a0 c75d b7bf
000001e0: 0000 0020 d403 da3f 0000 0080 bb04 e43f
000001f0: 0000 00c0 f56e b2bf 0000 0080 2e7e d93f
00000200: 0000 0040 64bc ea3f 0000 0000 5291 b03e
00000210: 0000 0000 cb7f df3f 0000 00a0 581b e93f
00000220: 0000 0060 17b6 a9bf 0000 0080 5f0a e23f
00000230: 0000 0020 07e7 e53f 0000 00e0 723e b1bf
00000240: 0000 0020 edb7 e23f 0000 0060 1db9 e23f
00000250: 0000 00c0 8250 b5bf 0000 0000 4f9e e23f
00000260: 0000 0060 1550 df3f 0000 0080 4228 b8bf
00000270: 0000 00a0 a07f e13f 0000 0000 fbb4 e03f
00000280: 0000 0000 26f3 93bf 0000 00c0 9132 e33f
00000290: 0000 0000 0c7f d93f 0000 0080 a449 aabf
000002a0: 0000 00e0 6926 e43f 0000 00e0 bfa7 d43f
000002b0: 0000 0080 56a9 b1bf 0000 00e0 2cf4 e43f
000002c0: 0000 0000 0d4c d03f 0000 0020 a695 b3bf
000002d0: 0000 0060 5747 df3f 0000 00a0 8d12 e03f
000002e0: 0000 0080 2557 95bf 0000 00e0 642f e03f
000002f0: 0000 0040 c31f d53f 0000 0080 ea6c b1bf
00000300: 0000 0060 52ca e03f 0000 0080 f486 cd3f
00000310: 0000 00e0 ca13 b8bf 0000 00e0 835d e13f
00000320: 0000 00c0 d355 c33f 0000 0060 c2cc b9bf
00000330: 0000 0060 ec4d db3f 0000 00c0 c18f e03f
00000340: 0000 0060 50ad 9dbf 0000 0000 1ef5 dd3f
00000350: 0000 0080 ca96 de3f 0000 00e0 3a4e babf
00000360: 0000 0020 aa80 de3f 0000 0080 85a9 e23f
00000370: 0000 0080 458d bcbf 0000 00c0 8644 de3f
00000380: 0000 00c0 fdd2 e43f 0000 00e0 695c b7bf
00000390: 0000 0060 da7b d73f 0000 0080 e083 e13f
000003a0: 0000 0060 a75c a4bf 0000 0040 89f1 d93f
000003b0: 0000 00c0 7e67 e03f 0000 0060 d5b5 b7bf
000003c0: 0000 00e0 5bea da3f 0000 00a0 2200 e33f
000003d0: 0000 00a0 1b1c b6bf 0000 0080 709a da3f
000003e0: 0000 0080 81a3 e43f 0000 00c0 6fbd b0bf
000003f0: 0000 0080 e9f1 d83f 0000 00a0 ff8c ea3f
00000400: 0000 00e0 c846 993e 0000 00a0 a6cf df3f
00000410: 0000 00c0 92c0 e83f 0000 00c0 bda8 a6bf
00000420: 0000 0080 d263 e23f 0000 0080 719f e53f
00000430: 0000 00a0 9155 b0bf 0000 00e0 a614 e33f
00000440: 0000 0020 424a e23f 0000 0020 3095 b5bf
00000450: 0000 0020 4dd2 e23f 0000 0000 c995 de3f
00000460: 0000 0080 5b83 babf 0000 0020 d7a2 e13f
00000470: 0000 0080 bdbf df3f 0000 0020 bda3 85bf
00000480: 0000 0020 b8df e23f 0000 0020 723e d93f
00000490: 0000 0060 18de aebf 0000 0000 32ad e33f
000004a0: 0000 0000 75c7 d73f 0000 00c0 c232 babf
000004b0: 0000 0060 f744 e43f 0000 0000 1736 d83f
000004c0: 0000 0040 d52d c0bf 0000 0000 6991 df3f
000004d0: 0000 0040 8e05 df3f 0000 0060 c1a9 88bf
000004e0: 0000 0000 a892 e03f 0000 00a0 bae7 d73f
000004f0: 0000 00c0 e51f b1bf 0000 00c0 421a e13f
00000500: 0000 0040 4a5f d83f 0000 00c0 b059 bbbf
00000510: 0000 0000 a765 e13f 0000 00c0 6028 da3f
00000520: 0000 0020 4514 c0bf 0000 0020 8684 db3f
00000530: 0000 00a0 aad2 df3f 0000 00e0 e675 96bf
00000540: 0000 00c0 730b dd3f 0000 0060 3928 db3f
00000550: 0000 00c0 2814 b5bf 0000 00a0 a005 de3f
00000560: 0000 0060 0e66 df3f 0000 00c0 cfec b8bf
00000570: 0000 00e0 9343 de3f 0000 0040 02c7 e13f
00000580: 0000 0000 72f5 b7bf 0000 0080 c55b d73f
00000590: 0000 0040 2dea e03f 0000 0000 4236 a2bf
000005a0: 0000 0020 34cc d83f 0000 0020 ffae de3f
000005b0: 0000 00c0 c24f b5bf 0000 0000 71d8 d93f
000005c0: 0000 0080 4dfb e03f 0000 0020 0fa2 b6bf
000005d0: 0000 00e0 fb1a da3f 0000 00a0 be9d e23f
000005e0: 0000 0060 0ed7 b4bf 0000 0040 f835 d93f
000005f0: 0000 0040 7b88 ea3f 0000 0020 e86a a03e
00000600: 0000 0000 58af df3f 0000 0040 8bb8 e83f
00000610: 0000 0080 41a4 a1bf 0000 0040 a73f e23f
00000620: 0000 0000 06b6 e53f 0000 00a0 1339 a7bf
00000630: 0000 0020 a80e e33f 0000 0000 948c e23f
00000640: 0000 0080 06f6 adbf 0000 00c0 14ef e23f
00000650: 0000 0060 de30 df3f 0000 00a0 7709 b2bf
00000660: 0000 00e0 7765 e13f 0000 00c0 2732 e03f
00000670: 0000 0080 67cd 7a3f 0000 0000 6683 e23f
00000680: 0000 00c0 2364 da3f 0000 00c0 99e1 9cbf
00000690: 0000 0080 224a e33f 0000 0040 b4c1 d73f
000006a0: 0000 0040 2536 aebf 0000 0020 ac00 e43f
000006b0: 0000 0000 d588 d63f 0000 0000 6ea6 b3bf
000006c0: 0000 0040 ba26 df3f 0000 00c0 3b6d df3f
000006d0: 0000 00c0 0648 6d3f 0000 0060 b925 e03f
000006e0: 0000 0040 df33 d83f 0000 0000 862b a2bf
000006f0: 0000 00c0 7fb8 e03f 0000 00c0 e140 d63f
00000700: 0000 00c0 f4fd b0bf 0000 00c0 6834 e13f
00000710: 0000 0080 47aa d53f 0000 00e0 66dd b4bf
00000720: 0000 00a0 7032 db3f 0000 0040 ac18 e03f
00000730: 0000 0000 5185 7cbf 0000 0000 0472 dc3f
00000740: 0000 0060 495d db3f 0000 0020 90de aebf
00000750: 0000 00e0 2c92 dd3f 0000 00a0 83c4 df3f
00000760: 0000 0080 4aa2 b2bf 0000 0020 b70a de3f
00000770: 0000 00a0 7421 e23f 0000 00c0 3e26 b1bf
00000780: 0000 0000 2e41 d73f 0000 0000 8427 e13f
00000790: 0000 00e0 03b7 94bf 0000 00c0 81c5 d83f
000007a0: 0000 0000 13a9 de3f 0000 00a0 7c94 b0bf
000007b0: 0000 00a0 32de d93f 0000 0000 c211 e13f
000007c0: 0000 0060 8e5c b1bf 0000 00e0 e42b da3f
000007d0: 0000 00a0 7de6 e23f 0000 0060 6325 aebf
000007e0: 0000 00c0 da57 d93f 0000 0020 740c ea3f
000007f0: 0000 0060 ebde 9bbe 0000 00c0 698e df3f
0.42511922121047974 0.7462920546531677 9.51102322233055e-07 0.49177494645118713 0.7427819967269897 -0.04678606986999512 0.5650115013122559 0.6665387153625488
-0.06417110562324524 0.5916088223457336 0.5799378156661987 -0.07904442399740219 0.5923042297363281 0.4931516647338867 -0.09272083640098572 0.5364275574684143
0.5343211889266968 -0.03708045557141304 0.576207160949707 0.4339672327041626 -0.07714622467756271 0.6064046025276184 0.363835871219635 -0.10102035105228424
0.6324456930160522 0.30653566122055054 -0.11277967691421509 0.48327410221099854 0.511703372001648 -0.03598165512084961 0.4978787302970886 0.38347744941711426
-0.08157975971698761 0.5103503465652466 0.3118217885494232 -0.10477691888809204 0.5226895809173584 0.2445286512374878 -0.11222071945667267 0.42677512764930725
0.5176343321800232 -0.04023372754454613 0.4540882408618927 0.47479048371315 -0.10569432377815247 0.4572451114654541 0.56243497133255 -0.10777533054351807
0.4520891308784485 0.6178158521652222 -0.08875378221273422 0.3678765296936035 0.5437350273132324 -0.04694156348705292 0.3978497385978699 0.5070111751556396
-0.09796202182769775 0.4104175567626953 0.5773916840553284 -0.09127471596002579 0.4064836800098419 0.6255776882171631 -0.07200561463832855 0.3983265161514282
0.8354970216751099 9.875093383016065e-07 0.4921748638153076 0.7845881581306458 -0.05021737143397331 0.5637662410736084 0.6844516396522522 -0.06735914200544357
0.5849519371986389 0.5850970149040222 -0.08325974643230438 0.581824779510498 0.4892629086971283 -0.09436431527137756 0.5468295216560364 0.522092342376709
-0.01948222517967224 0.5999230146408081 0.3983793258666992 -0.051343098282814026 0.6296891570091248 0.3227386176586151 -0.06899014115333557 0.6548065543174744
0.2546417713165283 -0.07650221139192581 0.488729327917099 0.5022647976875305 -0.020840249955654144 0.5057854056358337 0.3300636410713196 -0.06806817650794983
0.524697482585907 0.23068100214004517 -0.09405200928449631 0.542665421962738 0.15105673670768738 -0.10078062862157822 0.42663106322288513 0.5175484418869019
-0.02898145280778408 0.46808576583862305 0.47795355319976807 -0.10275619477033615 0.47660306096076965 0.5831935405731201 -0.11153063178062439 0.47293251752853394
0.650755763053894 -0.0912538692355156 0.3669343888759613 0.5473482608795166 -0.03976939246058464 0.4053671956062317 0.5126336812973022 -0.09261830896139145
0.42055413126945496 0.5937665104866028 -0.08636639267206192 0.4156762361526489 0.6449592113494873 -0.06539057195186615 0.3897651433944702 0.8297117352485657
3.766492397971888e-07 0.4970490038394928 0.7735074758529663 -0.044256143271923065 0.5746853351593018 0.675713300704956 -0.06380567699670792 0.5962709784507751
0.5715647339820862 -0.08430767804384232 0.5881715416908264 0.4778921604156494 -0.10356685519218445 0.5511279702186584 0.49607789516448975 -0.01056621316820383
0.5898094773292542 0.39443638920783997 -0.0602882020175457 0.6148920059204102 0.3715488910675049 -0.10233704745769501 0.6334187388420105 0.37830138206481934
-0.1263987123966217 0.49325013160705566 0.4847140908241272 -0.012042532674968243 0.5179023742675781 0.37351861596107483 -0.06689296662807465 0.5344556570053101
0.3808160424232483 -0.10683731734752655 0.5436587333679199 0.4087144732475281 -0.1256185919046402 0.429963618516922 0.4972330629825592 -0.021934134885668755
0.453823983669281 0.42433008551597595 -0.0823388546705246 0.4690934717655182 0.4906040132045746 -0.09736345708370209 0.47287461161613464 0.555543065071106
-0.0935889482498169 0.36497628688812256 0.5285860300064087 -0.03557020425796509 0.38746359944343567 0.4794309437274933 -0.08324830234050751 0.4038355350494385
0.5306766033172607 -0.08841032534837723 0.4078969657421112 0.5817559361457825 -0.08140649646520615 0.39391905069351196 0.8291603326797485 4.892827405456046e-07
0.49507713317871094 0.7725273370742798 -0.034456297755241394 0.5702701807022095 0.6784696578979492 -0.04535733535885811 0.5955391526222229 0.5796604156494141
-0.05851764976978302 0.5916846990585327 0.4873577058315277 -0.07045695930719376 0.5436362624168396 0.5061224699020386 0.006543545052409172 0.5785398483276367
0.4123620390892029 -0.02820434793829918 0.602799654006958 0.37119776010513306 -0.05900684744119644 0.6250820755958557 0.35210156440734863 -0.07675826549530029
0.48673874139785767 0.4910420775413513 0.0035743839107453823 0.5046049952507019 0.3781660199165344 -0.0354883074760437 0.5225218534469604 0.3477100729942322
-0.06637506186962128 0.5376476049423218 0.33851802349090576 -0.08150332421064377 0.4249536097049713 0.5030118227005005 -0.006963077932596207 0.4444589614868164
0.4275687634944916 -0.06029177084565163 0.4620468318462372 0.49636927247047424 -0.07278886437416077 0.469404011964798 0.5665839314460754 -0.06698982417583466
0.36335325241088867 0.5360736846923828 -0.020229397341609 0.3870548605918884 0.47906947135925293 -0.06476572901010513 0.404186874628067 0.5334177017211914
-0.0678185448050499 0.40892907977104187 0.5906360745429993 -0.05887899920344353 0.39598721265792847 0.8140202164649963 -4.1530697103553393e-07 0.49306720495224
