dataset/B/B_2.npy (npy, 15248 bytes, 1 tensors)

array f8 [30, 63]
0	0x3fd7b9b2c0000000	0.3707091212272644
1	0x3fe634a500000000	0.6939263343811035
2	0x3e4cd56f20000000	1.342675037818708e-08
3	0x3fdcae8e40000000	0.4481540322303772
4	0x3fe5d435e0000000	0.6821545958518982
5	0xbf9f239d20000000	-0.03040929324924946
6	0x3fe0cc43a0000000	0.5249345898628235
7	0x3fe4096400000000	0.6261463165283203
8	0xbfa38015a0000000	-0.038086581975221634
9	0x3fe1af79a0000000	0.5526703000068665
10	0x3fe12fd900000000	0.5370907783508301
11	0xbfa742c440000000	-0.045431263744831085
12	0x3fe1925320000000	0.5491119027137756
13	0x3fdd2d5540000000	0.4558919072151184
14	0xbfa9e001e0000000	-0.05053716525435448
15	0x3fe0801800000000	0.5156364440917969
16	0x3fe13935e0000000	0.5382336974143982
17	0x3f897db220000000	0.01244677696377039
18	0x3fe1440bc0000000	0.5395563840866089
19	0x3fe0472ac0000000	0.5086873769760132
20	0xbf879dc080000000	-0.01153135672211647
21	0x3fe0f79500000000	0.5302224159240723
22	0x3fe0762640000000	0.5144225358963013
23	0xbf9bc8a4c0000000	-0.027132581919431686
24	0x3fe0ab23e0000000	0.5208911299705505
25	0x3fdfe62540000000	0.49842196702957153
26	0xbfa1b379a0000000	-0.03457241132855415
27	0x3fde1d6f60000000	0.47054657340049744
28	0x3fe0108720000000	0.5020175576210022
29	0x3f9203d1e0000000	0.017592696473002434
30	0x3fdf7b78e0000000	0.4919111430644989
31	0x3fdeb06320000000	0.47951582074165344
32	0xbf75f07420000000	-0.005356267560273409
33	0x3fde4b0400000000	0.4733285903930664
34	0x3fe0d608e0000000	0.526127278804779
35	0xbf8a396da0000000	-0.01280484814196825
36	0x3fddb949c0000000	0.46443408727645874
37	0x3fe092e7c0000000	0.5179327726364136
38	0xbf88c043c0000000	-0.012085465714335442
39	0x3fdaf90cc0000000	0.42145079374313354
40	0x3fde784580000000	0.47609078884124756
41	0x3f8e8d89e0000000	0.014918400906026363
42	0x3fdc45f700000000	0.4417703151702881
43	0x3fdce5e040000000	0.4515305161476135
44	0xbf91e60480000000	-0.017479009926319122
45	0x3fdb68e060000000	0.4282761514186859
46	0x3fe0462120000000	0.5085607171058655
47	0xbf817c6520000000	-0.008538045920431614
48	0x3fdacfd400000000	0.41893482208251953
49	0x3fe0891d20000000	0.5167375206947327
50	0x3f77630bc0000000	0.005709691904485226
51	0x3fd72a4b00000000	0.3619563579559326
52	0x3fdd329fc0000000	0.4562148451805115
53	0x3f840d8020000000	0.009791375137865543
54	0x3fd8ccb5c0000000	0.3874945044517517
55	0x3fdb8ab3c0000000	0.4303407073020935
56	0xbf86271480000000	-0.010816726833581924
57	0x3fd8804a60000000	0.3828302323818207
58	0x3fdeefb400000000	0.4833803176879883
59	0x3f5af220c0000000	0.0016446418594568968
60	0x3fd81346c0000000	0.37617653608322144
61	0x3fe0212680000000	0.5040466785430908
62	0x3f91751ea0000000	0.017048338428139687
63	0x3fd8378480000000	0.37838852405548096
64	0x3fe634f9a0000000	0.6939666867256165
65	0xbe86434a60000000	-1.6587118523148092e-07
66	0x3fdd0e7b60000000	0.45400890707969666
67	0x3fe5ced1c0000000	0.6814965009689331
68	0xbf9a3957e0000000	-0.025609372183680534
69	0x3fe1254e60000000	0.5358039736747742
70	0x3fe3c878a0000000	0.6182215809822083
71	0xbf9f12fc80000000	-0.030345864593982697
72	0x3fe1d93fc0000000	0.5577696561813354
73	0x3fe0aed000000000	0.5213394165039062
74	0xbfa21f6200000000	-0.035395681858062744
75	0x3fe15ef240000000	0.5428401231765747
76	0x3fdc7d2840000000	0.44513899087905884
77	0xbfa2e4dd60000000	-0.036902349442243576
78	0x3fe069ede0000000	0.5129308104515076
79	0x3fe07c0b80000000	0.5151422023773193
80	0x3f921e1de0000000	0.017693011090159416
81	0x3fe1390760000000	0.5382115244865417
82	0x3fdf1ae3c0000000	0.4860162138938904
83	0xbf86abe2a0000000	-0.011070032604038715
84	0x3fe0870e80000000	0.516486406326294
85	0x3fe1229880000000	0.535473108291626
86	0xbf9ddfd860000000	-0.029174214228987694
87	0x3fe00a6f60000000	0.5012738108634949
88	0x3fe14ab920000000	0.5403714776039124
89	0xbfa2ea8560000000	-0.03694550320506096
90	0x3fdddb29e0000000	0.4665016829967499
91	0x3fdedb1720000000	0.4821222126483917
92	0x3f94417400000000	0.01978093385696411
93	0x3fdf5f6cc0000000	0.4901992678642273
94	0x3fdd7f49c0000000	0.46089404821395874
95	0xbf7e1db0a0000000	-0.007352533284574747
96	0x3fdddd6c00000000	0.46663951873779297
97	0x3fe1349560000000	0.5376688838005066
98	0xbf90b09240000000	-0.0162985660135746
99	0x3fdd21fc20000000	0.455199271440506
100	0x3fe15d2400000000	0.5426197052001953
101	0xbf8eecc9a0000000	-0.015100074000656605
102	0x3fdab41260000000	0.417240709066391
103	0x3fddcc52a0000000	0.46559587121009827
104	0x3f8d23c420000000	0.01422837469726801
105	0x3fdc3a7260000000	0.44106730818748474
106	0x3fdc02ce40000000	0.4376712441444397
107	0xbf960b1700000000	-0.021526679396629333
108	0x3fdb351100000000	0.4251139163970947
109	0x3fe0b33220000000	0.5218744874000549
110	0xbf8589f2e0000000	-0.01051702257245779
111	0x3fda68abe0000000	0.4126386344432831
112	0x3fe1404180000000	0.5390937328338623
113	0x3f7a9fcf20000000	0.006500062067061663
114	0x3fd6ea1420000000	0.3580370247364044
115	0x3fdd2bada0000000	0.4557909071445465
116	0x3f7c56aa40000000	0.006918587721884251
117	0x3fd8c72ac0000000	0.3871561884880066
118	0x3fdbd7e2c0000000	0.4350516200065613
119	0xbf8ea67260000000	-0.014965909533202648
120	0x3fd8588800000000	0.3804035186767578
121	0x3fdff63f00000000	0.4994046688079834
122	0xbf4e33c3c0000000	-0.0009216981707140803
123	0x3fd7d6fc60000000	0.37249669432640076
124	0x3fe09cb080000000	0.5191271305084229
125	0x3f90ade5a0000000	0.016288364306092262
126	0x3fd86ddd80000000	0.381705641746521
127	0x3fe63dd3a0000000	0.6950471997261047
128	0xbe904ec200000000	-2.4300288714584894e-07
129	0x3fdd34d400000000	0.45634937286376953
130	0x3fe5d11ec0000000	0.6817773580551147
131	0xbf9b9e63c0000000	-0.026971396058797836
132	0x3fe13cbb80000000	0.5386636257171631
133	0x3fe3f6fe00000000	0.6239004135131836
134	0xbfa17610e0000000	-0.03410389646887779
135	0x3fe1ef4540000000	0.5604578256607056
136	0x3fe0d7d560000000	0.5263468623161316
137	0xbfa56d82e0000000	-0.04185112938284874
138	0x3fe167c160000000	0.5439154505729675
139	0x3fdc962880000000	0.4466649293899536
140	0xbfa74529e0000000	-0.045449551194906235
141	0x3fe0b24340000000	0.5217605829238892
142	0x3fe06e6b80000000	0.5134789943695068
143	0x3f8f6a5420000000	0.015339524485170841
144	0x3fe173c940000000	0.5453840494155884
145	0x3fdedbbea0000000	0.48216214776039124
146	0xbf94402dc0000000	-0.01977607235312462
147	0x3fe0cb0620000000	0.524783194065094
148	0x3fe14d8480000000	0.5407125949859619
149	0xbfa42e7b20000000	-0.039417121559381485
150	0x3fe0552840000000	0.5103951692581177
151	0x3fe1b38820000000	0.5531654953956604
152	0xbfa7c8ca20000000	-0.04645377770066261
153	0x3fde7be380000000	0.4763115644454956
154	0x3fde7978a0000000	0.4761640131473541
155	0x3f90c01be0000000	0.01635783724486828
156	0x3fdfc03b40000000	0.49610787630081177
157	0x3fdd0634a0000000	0.4535037577152252
158	0xbf906eeb00000000	-0.016048118472099304
159	0x3fde4be420000000	0.47338202595710754
160	0x3fe13a64c0000000	0.538378119468689
161	0xbf97838820000000	-0.022962691262364388
162	0x3fdda0d140000000	0.462940514087677
163	0x3fe1759e60000000	0.5456077456474304
164	0xbf936cd8a0000000	-0.018969902768731117
165	0x3fdb30d0e0000000	0.42485448718070984
166	0x3fdd21d300000000	0.45518946647644043
167	0x3f81d5c5c0000000	0.008708519861102104
168	0x3fdc665da0000000	0.4437479078769684
169	0x3fdb5656c0000000	0.42714470624923706
170	0xbfa12481e0000000	-0.0334816537797451
171	0x3fdb627d20000000	0.4278862774372101
172	0x3fe0a11fc0000000	0.519668459892273
173	0xbf94f6e520000000	-0.02047307975590229
174	0x3fdaa4eb40000000	0.41631585359573364
175	0x3fe14848c0000000	0.5400737524032593
176	0xbf330ede40000000	-0.00029080320382490754
177	0x3fd7132380000000	0.3605431318283081
178	0x3fdc5a16e0000000	0.44299861788749695
179	0xbf48f15fc0000000	-0.000761195900849998
180	0x3fd8c81500000000	0.38721203804016113
181	0x3fdb0b0f00000000	0.4225499629974365
182	0xbf9b7f4dc0000000	-0.026852812618017197
183	0x3fd8737700000000	0.3820474147796631
184	0x3fdfb75320000000	0.4955642521381378
185	0xbf887ac260000000	-0.011952894739806652
186	0x3fd7f715c0000000	0.37445586919784546
187	0x3fe0a2dd20000000	0.5198808312416077
188	0x3f7d3c7860000000	0.007137747015804052
189	0x3fd80e7480000000	0.37588226795196533
190	0x3fe66da000000000	0.7008819580078125
191	0xbe92243a40000000	-2.703296217987372e-07
192	0x3fdd441380000000	0.4572800397872925
193	0x3fe5e071c0000000	0.6836479902267456
194	0xbf93eaecc0000000	-0.019450854510068893
195	0x3fe14158c0000000	0.5392268896102905
196	0x3fe40431e0000000	0.6255120635032654
197	0xbf95a28240000000	-0.02112773433327675
198	0x3fe1f94d60000000	0.561682403087616
199	0x3fe0fefa20000000	0.5311251282691956
200	0xbf9a50cc40000000	-0.025698844343423843
201	0x3fe173b040000000	0.5453721284866333
202	0x3fdd02a060000000	0.4532853066921234
203	0xbf9adef7e0000000	-0.026241181418299675
204	0x3fe0bb21e0000000	0.5228433012962341
205	0x3fe0943400000000	0.5180912017822266
206	0x3fa1995680000000	0.034373000264167786
207	0x3fe17d4160000000	0.5465399622917175
208	0x3fdf1ea500000000	0.48624539375305176
209	0x3f756c3480000000	0.005230145528912544
210	0x3fe0baa300000000	0.5227828025817871
211	0x3fe14a12a0000000	0.5402920842170715
212	0xbf8a642100000000	-0.012886293232440948
213	0x3fe0402380000000	0.5078294277191162
214	0x3fe17de720000000	0.5466189980506897
215	0xbf94973fc0000000	-0.020108219236135483
216	0x3fde971e80000000	0.4779735803604126
217	0x3fdeb00b00000000	0.4794948101043701
218	0x3fa0892660000000	0.03229637071490288
219	0x3fdfa798c0000000	0.49460428953170776
220	0x3fdd48c880000000	0.45756733417510986
221	0x3f6a17e1e0000000	0.0031852161046117544
222	0x3fde136dc0000000	0.4699358344078064
223	0x3fe142d1a0000000	0.5394065976142883
224	0xbf76d48e20000000	-0.005573802161961794
225	0x3fdd738f60000000	0.4601782262325287
226	0x3fe173d160000000	0.5453879237174988
227	0xbf6765fea0000000	-0.0028562520164996386
228	0x3fdb52fc60000000	0.42694005370140076
229	0x3fdd3da8c0000000	0.4568883776664734
230	0x3f96022ae0000000	0.021492643281817436
231	0x3fdc5a7c20000000	0.443022757768631
232	0x3fdb821000000000	0.4298133850097656
233	0xbf91adc700000000	-0.0172644704580307
234	0x3fdb2e5180000000	0.4247020483016968
235	0x3fe0a44f20000000	0.5200572609901428
236	0xbf76c10260000000	-0.005555161740630865
237	0x3fda7937c0000000	0.4136485457420349
238	0x3fe1422280000000	0.539323091506958
239	0x3f8bb6f700000000	0.013532571494579315
240	0x3fd746e680000000	0.3637024164199829
241	0x3fdc622000000000	0.44348907470703125
242	0x3f82aa3a00000000	0.009113743901252747
243	0x3fd8e60f60000000	0.3890417516231537
244	0x3fdaeb5760000000	0.420614093542099
245	0xbf8babf5c0000000	-0.013511581346392632
246	0x3fd85ac080000000	0.38053905963897705
247	0x3fdf69b440000000	0.49082666635513306
248	0x3f5e368e40000000	0.0018440617714077234
249	0x3fd7dc9da0000000	0.3728403151035309
250	0x3fe0759fe0000000	0.5143584609031677
251	0x3f95750500000000	0.020954206585884094
252	0x3fd7f4d180000000	0.3743175268173218
253	0x3fe66f4a40000000	0.7010852098464966
254	0xbe92fff280000000	-2.83118993138487e-07
255	0x3fdd3df760000000	0.45690712332725525
