dataset/B/B_3.npy (npy, 15248 bytes, 1 tensors)

array f8 [30, 63]
0.3394373655319214 0.7036615610122681 -2.959473022201564e-07 0.41202592849731445 0.6686391830444336 -0.04211774095892906 0.48717832565307617 0.5870720148086548
-0.05956532806158066 0.49752354621887207 0.48598602414131165 -0.07388400286436081 0.4644606113433838 0.41114506125450134 -0.081230029463768 0.44184061884880066
0.46267592906951904 -0.008627681992948055 0.4743114709854126 0.4285115897655487 -0.05224260315299034 0.46315494179725647 0.5158562064170837 -0.0736183375120163
0.4446823000907898 0.5290427803993225 -0.08261435478925705 0.39282840490341187 0.4452206790447235 -0.004192766733467579 0.4203667640686035 0.41165974736213684
-0.047560304403305054 0.4127092957496643 0.520067572593689 -0.05471239238977432 0.3953162133693695 0.5247739553451538 -0.050328608602285385 0.34039777517318726
0.4446442127227783 -0.00908149778842926 0.3645763397216797 0.4110710918903351 -0.05769829824566841 0.3641175329685211 0.5175461173057556 -0.0406937412917614
0.34673383831977844 0.5311153531074524 -0.018322153016924858 0.276245653629303 0.45436012744903564 -0.017168620601296425 0.305495023727417 0.4393405020236969
-0.04557643458247185 0.31487902998924255 0.5139119029045105 -0.02982538938522339 0.3051767349243164 0.5284255146980286 -0.01108227763324976 0.3367323875427246
0.7084172964096069 -2.9391964062597253e-07 0.4123989939689636 0.6676777601242065 -0.034966010600328445 0.48569050431251526 0.5854524970054626 -0.047691844403743744
0.4923805594444275 0.48533985018730164 -0.058508094400167465 0.46034443378448486 0.4160176217556 -0.06328123062849045 0.4296053349971771 0.4584721624851227
-0.0007278573466464877 0.45886164903640747 0.4259098768234253 -0.0395512692630291 0.45247963070869446 0.5163914561271667 -0.059973157942295074 0.43908894062042236
0.5347918272018433 -0.06846096366643906 0.38099992275238037 0.44426029920578003 0.0017246342031285167 0.4077926576137543 0.41229328513145447 -0.036130208522081375
0.4046810567378998 0.5230110287666321 -0.04287160560488701 0.38913682103157043 0.5370630621910095 -0.03869670629501343 0.3308630883693695 0.44647514820098877
-0.0042328909039497375 0.35279735922813416 0.41258344054222107 -0.04810740798711777 0.3554466664791107 0.5205476880073547 -0.03069663979113102 0.3400459587574005
0.5435882210731506 -0.008161121979355812 0.2699523866176605 0.460274875164032 -0.012718365527689457 0.2981896996498108 0.43631401658058167 -0.0371457077562809
0.3079673647880554 0.5116907358169556 -0.018630709499120712 0.2986716032028198 0.5340738892555237 0.0021399420220404863 0.338390588760376 0.7078596353530884
-3.277961582170974e-07 0.4129359722137451 0.6662233471870422 -0.03007269650697708 0.4831106662750244 0.5849456191062927 -0.0403771810233593 0.48888731002807617
0.4872531592845917 -0.0501234233379364 0.4599713087081909 0.41724884510040283 -0.054028283804655075 0.4287528395652771 0.4620080888271332 0.006204415578395128
0.45811837911605835 0.4278433322906494 -0.03182990103960037 0.45218944549560547 0.5145275592803955 -0.051461610943078995 0.43760842084884644 0.5361362099647522
-0.058899886906147 0.3818683326244354 0.4461873769760132 0.006621731445193291 0.4097067713737488 0.4123198986053467 -0.03025626763701439 0.40615034103393555
0.5185961723327637 -0.03621120750904083 0.3899059295654297 0.5343130230903625 -0.03121507354080677 0.33222100138664246 0.4456125497817993 -0.0015311366878449917
0.35617795586586 0.41144323348999023 -0.0452163927257061 0.3584618866443634 0.5159655213356018 -0.02904880978167057 0.3426284193992615 0.53959721326828
-0.00698147714138031 0.2714725136756897 0.45783960819244385 -0.011838803067803383 0.30181360244750977 0.4331510663032532 -0.03646591305732727 0.31135836243629456
0.5086125731468201 -0.019086888059973717 0.3012144863605499 0.5319703221321106 0.0010624033166095614 0.3423073887825012 0.7043503522872925 -2.5980546070059063e-07
0.4161747694015503 0.6707320213317871 -0.0432753749191761 0.48689115047454834 0.5887567400932312 -0.06117447838187218 0.491318941116333 0.4858294129371643
-0.07568257302045822 0.4572843611240387 0.4126328229904175 -0.08338341861963272 0.4338529407978058 0.4552712142467499 -0.0097549082711339 0.46114426851272583
0.4228365421295166 -0.054801326245069504 0.45799341797828674 0.5136650800704956 -0.07766837626695633 0.444646418094635 0.5370914340019226 -0.08629395067691803
0.38420164585113525 0.4404139220714569 -0.004018343985080719 0.4092111587524414 0.40969395637512207 -0.046546630561351776 0.4096652865409851 0.5218127965927124
-0.053030554205179214 0.3953520953655243 0.5355915427207947 -0.0475776307284832 0.3329158425331116 0.44151490926742554 -0.007880724966526031 0.3539426922798157
0.413746178150177 -0.056570183485746384 0.3603096306324005 0.5226184725761414 -0.03966211527585983 0.34690988063812256 0.5449172258377075 -0.01633569970726967
0.2706851363182068 0.4547548294067383 -0.01499240379780531 0.2994612753391266 0.43983200192451477 -0.0437881164252758 0.3119117021560669 0.5162398219108582
-0.027884267270565033 0.3041194677352905 0.5376321077346802 -0.008051784709095955 0.3374967575073242 0.7024390697479248 -2.7452821882434364e-07 0.41153407096862793
00000000: 0000 0080 57b9 d53f 0000 0040 6584 e63f
00000010: 0000 0000 56dc 93be 0000 0000 a25e da3f
00000020: 0000 0000 7e65 e53f 0000 00e0 7490 a5bf
00000030: 0000 0000 ee2d df3f 0000 0040 4bc9 e23f
00000040: 0000 00c0 587f aebf 0000 0000 6dd7 df3f
00000050: 0000 0020 651a df3f 0000 00e0 0fea b2bf
00000060: 0000 0000 b9b9 dd3f 0000 0060 3350 da3f
00000070: 0000 00c0 7dcb b4bf 0000 00e0 1d47 dc3f
00000080: 0000 0080 7b9c dd3f 0000 00e0 63ab 81bf
00000090: 0000 0080 1e5b de3f 0000 00e0 bb6c db3f
000000a0: 0000 00e0 8abf aabf 0000 00a0 54a4 dd3f
000000b0: 0000 00e0 e481 e03f 0000 00c0 a6d8 b2bf
000000c0: 0000 00c0 ac75 dc3f 0000 0020 ebed e03f
000000d0: 0000 00e0 3626 b5bf 0000 00c0 1924 d93f
000000e0: 0000 00e0 7e7e dc3f 0000 0040 6f2c 71bf
000000f0: 0000 0000 4ae7 da3f 0000 0020 a258 da3f
00000100: 0000 0000 d359 a8bf 0000 0040 d469 da3f
00000110: 0000 00c0 64a4 e03f 0000 0040 4303 acbf
00000120: 0000 0060 dc4c d93f 0000 00c0 f2ca e03f
00000130: 0000 00e0 abc4 a9bf 0000 00c0 13c9 d53f
00000140: 0000 0000 0d75 dc3f 0000 0000 5299 82bf
00000150: 0000 0000 3855 d73f 0000 0020 fd4e da3f
00000160: 0000 00a0 a18a adbf 0000 00a0 b34d d73f
00000170: 0000 00e0 bc8f e03f 0000 0060 cfd5 a4bf
00000180: 0000 0020 e330 d63f 0000 00a0 e5fe e03f
00000190: 0000 00e0 0ac3 92bf 0000 0040 02ae d13f
000001a0: 0000 0080 3c14 dd3f 0000 00a0 a694 91bf
000001b0: 0000 0000 3b8d d33f 0000 00a0 271e dc3f
000001c0: 0000 0060 cb55 a7bf 0000 0060 fa26 d43f
000001d0: 0000 0060 f771 e03f 0000 0000 8c8a 9ebf
000001e0: 0000 0000 0488 d33f 0000 00a0 dce8 e03f
000001f0: 0000 0020 4eb2 86bf 0000 0000 068d d53f
00000200: 0000 00c0 5aab e63f 0000 0040 80b9 93be
00000210: 0000 00c0 be64 da3f 0000 00c0 9d5d e53f
00000220: 0000 00a0 10e7 a1bf 0000 00a0 8d15 df3f
00000230: 0000 00e0 06bc e23f 0000 00c0 106b a8bf
00000240: 0000 00c0 2983 df3f 0000 00e0 ce0f df3f
00000250: 0000 00e0 c5f4 adbf 0000 0080 4876 dd3f
00000260: 0000 0060 08a0 da3f 0000 00e0 3233 b0bf
00000270: 0000 0060 a77e db3f 0000 00a0 9b57 dd3f
00000280: 0000 00c0 b5d9 47bf 0000 0040 fd5d dd3f
00000290: 0000 0080 1b42 db3f 0000 0060 1040 a4bf
000002a0: 0000 0020 6df5 dc3f 0000 0060 4786 e03f
000002b0: 0000 0040 cdb4 aebf 0000 0080 081a dc3f
000002c0: 0000 00c0 031d e13f 0000 0060 a886 b1bf
000002d0: 0000 0080 4d62 d83f 0000 00c0 c26e dc3f
000002e0: 0000 00e0 a341 5c3f 0000 0060 4619 da3f
000002f0: 0000 0060 0363 da3f 0000 00a0 a87f a2bf
00000300: 0000 0060 4be6 d93f 0000 00a0 81bc e03f
00000310: 0000 0060 44f3 a5bf 0000 0020 9ee7 d83f
00000320: 0000 00e0 9e2f e13f 0000 0000 0ed0 a3bf
00000330: 0000 0060 dc2c d53f 0000 0080 0c93 dc3f
00000340: 0000 0000 8256 71bf 0000 0060 3b94 d63f
00000350: 0000 0060 c467 da3f 0000 00c0 88a1 a8bf
00000360: 0000 0060 a3bf d63f 0000 00a0 53a8 e03f
00000370: 0000 00a0 f06e 9fbf 0000 0020 50c3 d53f
00000380: 0000 0020 1365 e13f 0000 0040 c7b6 80bf
00000390: 0000 0060 e646 d13f 0000 00c0 2475 dd3f
000003a0: 0000 0020 160c 8abf 0000 0040 8a15 d33f
000003b0: 0000 00a0 91ec db3f 0000 0020 c304 a3bf
000003c0: 0000 00c0 bcb5 d33f 0000 0040 c55f e03f
000003d0: 0000 00c0 ed13 93bf 0000 0080 6f1d d33f
000003e0: 0000 0020 2217 e13f 0000 00a0 c887 613f
000003f0: 0000 0000 31a8 d53f 0000 0040 c9a6 e63f
00000400: 0000 00c0 7eff 95be 0000 0000 8b6d da3f
00000410: 0000 00a0 b351 e53f 0000 0080 60cb 9ebf
00000420: 0000 0000 49eb de3f 0000 00e0 dfb7 e23f
00000430: 0000 0060 51ac a4bf 0000 0000 ee49 df3f
00000440: 0000 00e0 272f df3f 0000 0000 c7a9 a9bf
00000450: 0000 0080 2b70 dd3f 0000 0080 34b4 da3f
00000460: 0000 0060 98a9 abbf 0000 00c0 af70 db3f
00000470: 0000 0060 8a91 dd3f 0000 0020 cd69 793f
00000480: 0000 00c0 cf51 dd3f 0000 0000 c961 db3f
00000490: 0000 0040 024c a0bf 0000 0000 acf0 dc3f
000004a0: 0000 0080 0277 e03f 0000 0020 2d59 aabf
000004b0: 0000 00c0 c601 dc3f 0000 0020 0728 e13f
000004c0: 0000 0040 2028 aebf 0000 00e0 8770 d83f
000004d0: 0000 0080 558e dc3f 0000 0080 631f 7b3f
000004e0: 0000 00c0 a238 da3f 0000 0000 7363 da3f
000004f0: 0000 00c0 7ffb 9ebf 0000 0000 5efe d93f
00000500: 0000 0000 5798 e03f 0000 0080 468a a2bf
00000510: 0000 0000 38f4 d83f 0000 00a0 1719 e13f
00000520: 0000 0020 d8f6 9fbf 0000 00e0 1b43 d53f
00000530: 0000 0080 ea84 dc3f 0000 0080 0d16 59bf
00000540: 0000 00a0 9ecb d63f 0000 0000 1655 da3f
00000550: 0000 0060 9a26 a7bf 0000 0020 0af1 d63f
00000560: 0000 0020 ca82 e03f 0000 00a0 f8be 9dbf
00000570: 0000 00c0 9fed d53f 0000 0060 6144 e13f
00000580: 0000 0000 9c98 7cbf 0000 0040 ce5f d13f
00000590: 0000 0080 3e4d dd3f 0000 0040 f13e 88bf
000005a0: 0000 0000 ea50 d33f 0000 0040 bfb8 db3f
000005b0: 0000 0000 a9ab a2bf 0000 00a0 4bed d33f
000005c0: 0000 00e0 8d46 e03f 0000 0060 838b 93bf
000005d0: 0000 0020 1947 d33f 0000 00a0 e605 e13f
000005e0: 0000 00e0 0a68 513f 0000 0040 5de8 d53f
000005f0: 0000 00c0 098a e63f 0000 0080 6c6f 91be
00000600: 0000 0080 9ba2 da3f 0000 0000 a376 e53f
00000610: 0000 00a0 3028 a6bf 0000 0080 3929 df3f
00000620: 0000 0060 18d7 e23f 0000 00e0 4252 afbf
00000630: 0000 0000 c571 df3f 0000 0040 d417 df3f
00000640: 0000 00e0 ee5f b3bf 0000 00a0 2544 dd3f
00000650: 0000 0080 9368 da3f 0000 00a0 9d58 b5bf
00000660: 0000 0020 3fc4 db3f 0000 00e0 2923 dd3f
00000670: 0000 00a0 61fa 83bf 0000 0040 6383 dd3f
00000680: 0000 0000 c10f db3f 0000 0060 eb0e acbf
00000690: 0000 00a0 c34f dd3f 0000 00c0 f16f e03f
000006a0: 0000 0020 13e2 b3bf 0000 0040 1675 dc3f
000006b0: 0000 0060 da2f e13f 0000 0040 5c17 b6bf
000006c0: 0000 0080 c296 d83f 0000 00e0 bd2f dc3f
000006d0: 0000 0000 8a75 70bf 0000 0000 8430 da3f
000006e0: 0000 0000 6d38 da3f 0000 00c0 f5d4 a7bf
000006f0: 0000 00c0 f437 da3f 0000 00c0 b0b2 e03f
00000700: 0000 0020 d226 abbf 0000 00e0 724d d93f
00000710: 0000 00e0 9023 e13f 0000 0060 185c a8bf
00000720: 0000 0040 7e4e d53f 0000 00c0 c741 dc3f
00000730: 0000 0000 c523 80bf 0000 0040 ffa6 d63f
00000740: 0000 0040 d17a da3f 0000 0060 c4f6 acbf
00000750: 0000 0020 500f d73f 0000 0060 4ab9 e03f
00000760: 0000 00c0 974e a4bf 0000 0080 c533 d63f
00000770: 0000 0040 f66f e13f 0000 0040 4eba 90bf
00000780: 0000 00c0 e752 d13f 0000 0000 b41a dd3f
00000790: 0000 0060 56b4 8ebf 0000 00a0 5f2a d33f
000007a0: 0000 0020 3526 dc3f 0000 0060 656b a6bf
000007b0: 0000 0080 5cf6 d33f 0000 0060 0985 e03f
000007c0: 0000 0080 b18d 9cbf 0000 0080 b176 d33f
000007d0: 0000 0040 4834 e13f 0000 0040 747d 80bf
000007e0: 0000 0000 8c99 d53f 0000 0080 617a e63f
000007f0: 0000 00e0 5b6c 92be 0000 0000 9356 da3f
