dataset/B/B_4.npy (npy, 15248 bytes, 1 tensors)

array f8 [30, 63]
0	0x3fd5792b00000000	0.33552050590515137
1	0x3fe6dcb000000000	0.7144393920898438
2	0xbe947f29e0000000	-3.0542511808562267e-07
3	0x3fdab4d160000000	0.4172862470149994
4	0x3fe53c5140000000	0.663612961769104
5	0xbfa0d501e0000000	-0.03287511691451073
6	0x3fdf175c00000000	0.48580074310302734
7	0x3fe294b8a0000000	0.5806544423103333
8	0xbfa7ab5c00000000	-0.04622924327850342
9	0x3fdf581540000000	0.4897511601448059
10	0x3fdeae65a0000000	0.4793943464756012
11	0xbfae7ee260000000	-0.059561800211668015
12	0x3fdcf33340000000	0.45234376192092896
13	0x3fda15d4c0000000	0.40758246183395386
14	0xbfb10a7940000000	-0.06656606495380402
15	0x3fdb6d1820000000	0.4285335838794708
16	0x3fdbc85ac0000000	0.43410366773605347
17	0x3f91d30840000000	0.017406586557626724
18	0x3fddba6080000000	0.4645005464553833
19	0x3fdad98e00000000	0.4195284843444824
20	0xbf981133c0000000	-0.023503120988607407
21	0x3fdd316f60000000	0.45614227652549744
22	0x3fe0442140000000	0.5083166360855103
23	0xbfa8bd2660000000	-0.04831809923052788
24	0x3fdbf196c0000000	0.43662041425704956
25	0x3fe0e158e0000000	0.5275081992149353
26	0xbfae0751e0000000	-0.05864959582686424
27	0x3fd843d140000000	0.379139244556427
28	0x3fdaa68ea0000000	0.41641584038734436
29	0x3f9313c0a0000000	0.01863003708422184
30	0x3fda6bcec0000000	0.41283005475997925
31	0x3fda169b00000000	0.40762972831726074
32	0xbf94346640000000	-0.01973113790154457
33	0x3fd9f41dc0000000	0.40552467107772827
34	0x3fe0ad10e0000000	0.5211262106895447
35	0xbf9e2ee4e0000000	-0.029475761577486992
36	0x3fd89d8640000000	0.3846145272254944
37	0x3fe0f82aa0000000	0.5302937626838684
38	0xbf9a86ad80000000	-0.025904379785060883
39	0x3fd4f53fc0000000	0.3274688124656677
40	0x3fdac67dc0000000	0.418364942073822
41	0x3f846e2b20000000	0.009975754655897617
42	0x3fd6fb3860000000	0.35908326506614685
43	0x3fda37d8a0000000	0.4096585810184479
44	0xbfa18ee4c0000000	-0.034293316304683685
45	0x3fd6f767e0000000	0.3588504493236542
46	0x3fe07feec0000000	0.515616774559021
47	0xbf94bf6880000000	-0.020261414349079132
48	0x3fd5968400000000	0.3373117446899414
49	0x3fe0fe94c0000000	0.5310767889022827
50	0x3f528888c0000000	0.0011311850976198912
51	0x3fd0e7ea60000000	0.26415500044822693
52	0x3fdbd30b00000000	0.4347560405731201
53	0xbf57d7a880000000	-0.0014552255161106586
54	0x3fd34bdfa0000000	0.3015059530735016
55	0x3fdb75ab80000000	0.4290570020675659
56	0xbf98debcc0000000	-0.02428717538714409
57	0x3fd3ca6ac0000000	0.3092295527458191
58	0x3fe0274740000000	0.504794716835022
59	0xbf7a3da4a0000000	-0.0064064436592161655
60	0x3fd2de2820000000	0.29480937123298645
61	0x3fe0bd9800000000	0.5231437683105469
62	0x3f8e308c20000000	0.014741034246981144
63	0x3fd5b0e160000000	0.338920921087265
64	0x3fe6de2620000000	0.7146177887916565
65	0xbe950e0b60000000	-3.137418786991475e-07
66	0x3fdac8c980000000	0.41850507259368896
67	0x3fe539ca40000000	0.6633044481277466
68	0xbfa1d2cd40000000	-0.034811414778232574
69	0x3fdef25580000000	0.4835408926010132
70	0x3fe2900d60000000	0.580084502696991
71	0xbfa94d4b40000000	-0.049417831003665924
72	0x3fdf3136c0000000	0.4873787760734558
73	0x3fdee18ba0000000	0.48251619935035706
74	0xbfb056f300000000	-0.06382673978805542
75	0x3fdd0d16c0000000	0.45392388105392456
76	0x3fda392580000000	0.4097379446029663
77	0xbfb254fec0000000	-0.07160942256450653
78	0x3fdb839c00000000	0.42990779876708984
79	0x3fdbfe33c0000000	0.4373902678489685
80	0x3f8a3c3ba0000000	0.012810197658836842
81	0x3fdd947e20000000	0.4621882736682892
82	0x3fdab50b20000000	0.4173000156879425
83	0xbfa04d1a00000000	-0.03183823823928833
84	0x3fdd40b300000000	0.4570739269256592
85	0x3fe02d9660000000	0.5055648684501648
86	0xbfad75c160000000	-0.05753902718424797
87	0x3fdc2a9860000000	0.4400998055934906
88	0x3fe0ec4b60000000	0.5288445353507996
89	0xbfb14ab140000000	-0.06754596531391144
90	0x3fd85a9f40000000	0.3805311322212219
91	0x3fdafb4c20000000	0.4215879738330841
92	0x3f8ccad500000000	0.01405874639749527
93	0x3fda5f8240000000	0.412079393863678
94	0x3fd9e76c40000000	0.40474992990493774
95	0xbf9cdeccc0000000	-0.02819366380572319
96	0x3fda0784a0000000	0.40670886635780334
97	0x3fe09655a0000000	0.5183513760566711
98	0xbfa35b2f00000000	-0.03780505061149597
99	0x3fd8bd6760000000	0.3865602910518646
100	0x3fe0fa9880000000	0.530590295791626
101	0xbfa103dda0000000	-0.03323261812329292
102	0x3fd4fee140000000	0.3280566334724426
103	0x3fdb1712e0000000	0.42328330874443054
104	0x3f74573000000000	0.00496596097946167
105	0x3fd6e9e200000000	0.35802507400512695
106	0x3fda35a480000000	0.4095240831375122
107	0xbfa5ea4c40000000	-0.04280317574739456
108	0x3fd6fc0440000000	0.3591318726539612
109	0x3fe07c5da0000000	0.5151813626289368
110	0xbf9d73e000000000	-0.028762340545654297
111	0x3fd5b1b800000000	0.3389720916748047
112	0x3fe1031ba0000000	0.5316293835639954
113	0xbf7ab0f820000000	-0.006516427267342806
114	0x3fd0e613e0000000	0.26404282450675964
115	0x3fdc23f160000000	0.43969377875328064
116	0xbf7cccc740000000	-0.0070312293246388435
117	0x3fd32bb220000000	0.29954198002815247
118	0x3fdb9ac480000000	0.43132126331329346
119	0xbfa0adb620000000	-0.03257531300187111
120	0x3fd3c6bda0000000	0.30900517106056213
121	0x3fe038d080000000	0.5069353580474854
122	0xbf8fd17fa0000000	-0.015536305494606495
123	0x3fd2eef3c0000000	0.295834481716156
124	0x3fe0d0d520000000	0.525492250919342
125	0x3f768caa60000000	0.0055052428506314754
126	0x3fd5380da0000000	0.33154621720314026
127	0x3fe6eed340000000	0.7166534662246704
128	0xbe926ac980000000	-2.7443672934168717e-07
129	0x3fdaaaf3a0000000	0.4166840612888336
130	0x3fe530b220000000	0.6621943116188049
131	0xbfa200db00000000	-0.035162776708602905
132	0x3fdefb7040000000	0.48409658670425415
133	0x3fe2a167c0000000	0.5822027921676636
134	0xbfa98bb7c0000000	-0.04989408701658249
135	0x3fdf4b6b80000000	0.4889782667160034
136	0x3fded1adc0000000	0.4815477728843689
137	0xbfb0a741e0000000	-0.06505214422941208
138	0x3fdcbbe120000000	0.44896724820137024
139	0x3fda59c9e0000000	0.41173025965690613
140	0xbfb2c40fe0000000	-0.07330416887998581
141	0x3fdbe11300000000	0.43561244010925293
142	0x3fdd5e5420000000	0.4588823616504669
143	0x3f91d5d3a0000000	0.017417246475815773
144	0x3fdda5c4c0000000	0.46324270963668823
145	0x3fdb1e7ae0000000	0.4237353503704071
146	0xbf9acb6b60000000	-0.026166608557105064
147	0x3fdd4fc200000000	0.4579930305480957
148	0x3fe0602600000000	0.5117368698120117
149	0xbfa9c4f500000000	-0.050330787897109985
150	0x3fdc50b8a0000000	0.4424268305301666
151	0x3fe1020fe0000000	0.5315017104148865
152	0xbfae7259a0000000	-0.0594661720097065
153	0x3fd89dca80000000	0.38463079929351807
154	0x3fdc32f880000000	0.44061100482940674
155	0x3f93631120000000	0.01893259771168232
156	0x3fda2a8480000000	0.40884506702423096
157	0x3fda260840000000	0.4085713028907776
158	0xbf9960c1c0000000	-0.024783160537481308
159	0x3fd9da3c40000000	0.40394502878189087
160	0x3fe0bd77e0000000	0.5231284499168396
161	0xbfa1de5a80000000	-0.034899547696113586
162	0x3fd8bd36a0000000	0.3865486681461334
163	0x3fe108c600000000	0.5323209762573242
164	0xbf9e6fbfc0000000	-0.029723163694143295
165	0x3fd52ad3c0000000	0.33073896169662476
166	0x3fdc0ad240000000	0.4381604790687561
167	0x3f83ff7880000000	0.009764615446329117
168	0x3fd68f53a0000000	0.35249796509742737
169	0x3fda37c420000000	0.4096536934375763
170	0xbfa3cfa6c0000000	-0.0386936292052269
171	0x3fd6acb580000000	0.35429131984710693
172	0x3fe0886a60000000	0.5166522860527039
173	0xbf98872480000000	-0.02395302802324295
174	0x3fd59b0020000000	0.3375854790210724
175	0x3fe1062ea0000000	0.5320046544075012
176	0xbf4454d6c0000000	-0.000620465143583715
177	0x3fd0ec47e0000000	0.2644214332103729
178	0x3fdc9c8560000000	0.44705328345298767
179	0xbf639af180000000	-0.0023932186886668205
180	0x3fd2cb3340000000	0.29365235567092896
181	0x3fdb838340000000	0.4299018979072571
182	0xbf9c0b19e0000000	-0.027386097237467766
183	0x3fd34218a0000000	0.3009091913700104
184	0x3fe02b38c0000000	0.505276083946228
185	0xbf84573ce0000000	-0.009932017885148525
186	0x3fd28a7ba0000000	0.28970232605934143
187	0x3fe0bbda40000000	0.5229312181472778
188	0x3f874b8420000000	0.011374504305422306
189	0x3fd4ed84c0000000	0.32699698209762573
190	0x3fe6f178a0000000	0.7169764637947083
191	0xbe868af680000000	-1.6795712554085185e-07
192	0x3fdad66e00000000	0.41933774948120117
193	0x3fe5261860000000	0.6609002947807312
194	0xbf9f9d3a80000000	-0.030873216688632965
195	0x3fdf202500000000	0.48633694648742676
196	0x3fe2d0dbc0000000	0.5879954099655151
197	0xbfa5155640000000	-0.04117841273546219
198	0x3fdf70a840000000	0.49125105142593384
199	0x3fdeeeb400000000	0.4833192825317383
200	0xbfab06eb40000000	-0.052787162363529205
201	0x3fdd055960000000	0.4534514844417572
202	0x3fda6b3180000000	0.4127925634384155
203	0xbfada5f8a0000000	-0.05790688470005989
204	0x3fdb919480000000	0.4307605028152466
205	0x3fdde9c0c0000000	0.4673921465873718
206	0x3fa35772c0000000	0.03777655214071274
207	0x3fdd096440000000	0.45369821786880493
208	0x3fdb981720000000	0.4311578571796417
209	0x3f691e9d80000000	0.0030663562938570976
210	0x3fdc9cf180000000	0.447079062461853
211	0x3fe087c500000000	0.516573429107666
212	0xbf941fef00000000	-0.019653066992759705
213	0x3fdbbf7100000000	0.4335596561431885
214	0x3fe13bcb00000000	0.5385489463806152
215	0xbf9d008ce0000000	-0.028322411701083183
216	0x3fd84547e0000000	0.3792285621166229
217	0x3fdca7f0c0000000	0.4477502703666687
218	0x3fa50c9180000000	0.04111151397228241
219	0x3fd961cb60000000	0.3965938985347748
220	0x3fda5825e0000000	0.41163012385368347
221	0x3f74d4e2c0000000	0.005085836164653301
222	0x3fd91b55e0000000	0.39229342341423035
223	0x3fe0d353e0000000	0.5257968306541443
224	0xbf813da540000000	-0.008418360725045204
225	0x3fd85a31a0000000	0.3805049955844879
226	0x3fe1556880000000	0.5416758060455322
227	0xbf7644f6c0000000	-0.0054368628188967705
228	0x3fd4de6ba0000000	0.3260754644870758
229	0x3fdc79d940000000	0.4449370503425598
230	0x3fa18eff00000000	0.03429409861564636
231	0x3fd5b11520000000	0.3389332592487335
232	0x3fda7c3e80000000	0.41383326053619385
233	0xbf6e82c140000000	-0.003724458161741495
234	0x3fd5da0f20000000	0.3414342701435089
235	0x3fe08c3d80000000	0.5171191692352295
236	0x3f838b0000000000	0.009542465209960938
237	0x3fd51438e0000000	0.3293592631816864
238	0x3fe1186720000000	0.5342288613319397
239	0x3f9fc77de0000000	0.03103443793952465
240	0x3fd0ab92a0000000	0.26047196984291077
241	0x3fdcf2b780000000	0.45231425762176514
242	0x3f993ab760000000	0.024638047441840172
243	0x3fd1f12600000000	0.28034353256225586
244	0x3fdb868060000000	0.43008431792259216
245	0x3f8627d080000000	0.010818127542734146
246	0x3fd26fe880000000	0.2880803346633911
247	0x3fe00268c0000000	0.5002940893173218
248	0x3f9fb57180000000	0.030965588986873627
249	0x3fd2111f40000000	0.2822950482368469
250	0x3fe0999ba0000000	0.5187509655952454
251	0x3fab5012e0000000	0.05334528908133507
252	0x3fd595b440000000	0.33726221323013306
253	0x3fe6f2a8a0000000	0.717121422290802
254	0xbe897b8fe0000000	-1.8986064276305115e-07
255	0x3fdb04a600000000	0.42215871810913086
