dataset/W/W_0.npy (npy, 15248 bytes, 1 tensors)

array f8 [30, 63]
00000000: 0000 0040 16da e83f 0000 00c0 48a0 e63f
00000010: 0000 00c0 dd92 9f3e 0000 0040 8812 e63f
00000020: 0000 00c0 796d e63f 0000 00c0 b680 a0bf
00000030: 0000 00e0 54aa e33f 0000 0040 04a7 e43f
00000040: 0000 0060 3700 a8bf 0000 0020 bb0e e23f
00000050: 0000 00e0 9fa4 e23f 0000 0060 e8d2 aebf
00000060: 0000 0040 a996 e03f 0000 00a0 b43b e13f
00000070: 0000 0080 bde4 b2bf 0000 00a0 1877 e43f
00000080: 0000 0020 739d de3f 0000 0080 970d 94bf
00000090: 0000 00c0 6df1 e23f 0000 0080 f4f9 d83f
000000a0: 0000 0040 8c31 a6bf 0000 0000 31f5 e13f
000000b0: 0000 0080 e69f d53f 0000 00e0 d899 b0bf
000000c0: 0000 0020 c630 e13f 0000 00c0 aecb d23f
000000d0: 0000 00e0 fcac b4bf 0000 00e0 27e6 e53f
000000e0: 0000 00c0 e057 dc3f 0000 0080 f78e 99bf
000000f0: 0000 00e0 55eb e43f 0000 0080 cdb8 d43f
00000100: 0000 0060 d52c a7bf 0000 00a0 1952 e43f
00000110: 0000 0000 1907 d03f 0000 0040 929c b0bf
00000120: 0000 0040 abe5 e33f 0000 00c0 8b9e c83f
00000130: 0000 00c0 7c67 b4bf 0000 0040 c66a e73f
00000140: 0000 0020 b6ca db3f 0000 0020 6ab5 a2bf
00000150: 0000 0020 9e0c e73f 0000 00c0 ff60 d43f
00000160: 0000 00e0 7919 b0bf 0000 0060 2ad1 e63f
00000170: 0000 00e0 fc5a cf3f 0000 0060 364e b5bf
00000180: 0000 00c0 7692 e63f 0000 0080 7d58 c73f
00000190: 0000 00a0 44f0 b8bf 0000 0020 6008 e93f
000001a0: 0000 00c0 0299 dc3f 0000 0040 8431 aabf
000001b0: 0000 0000 e679 e93f 0000 00c0 b2a8 d63f
000001c0: 0000 0060 01d2 b3bf 0000 0020 7cd0 e93f
000001d0: 0000 00a0 3fcc d23f 0000 00a0 3239 b7bf
000001e0: 0000 0040 320d ea3f 0000 0000 e88c ce3f
000001f0: 0000 0020 b980 b9bf 0000 0080 f0f7 e83f
00000200: 0000 0080 4da8 e63f 0000 00a0 748f a03e
00000210: 0000 0000 3d33 e63f 0000 0020 698c e63f
00000220: 0000 0000 d581 a3bf 0000 0000 80bf e33f
00000230: 0000 0000 c1dc e43f 0000 00c0 e30b adbf
00000240: 0000 0080 681f e23f 0000 0080 45dd e23f
00000250: 0000 0020 a49b b2bf 0000 0060 d5a0 e03f
00000260: 0000 0000 9441 e13f 0000 0080 10b8 b6bf
00000270: 0000 0040 7779 e43f 0000 00a0 05cb de3f
00000280: 0000 0000 043a 9fbf 0000 00c0 1af4 e23f
00000290: 0000 0040 2c0d d93f 0000 0080 de15 aebf
000002a0: 0000 0000 d4f6 e13f 0000 00e0 7ba8 d53f
000002b0: 0000 0080 1446 b5bf 0000 0000 f92a e13f
000002c0: 0000 0000 79c0 d23f 0000 00c0 6cd9 b9bf
000002d0: 0000 00a0 9eef e53f 0000 0040 aa7e dc3f
000002e0: 0000 0040 d974 a1bf 0000 0060 40f2 e43f
000002f0: 0000 0020 a9dd d43f 0000 0020 0a1a aebf
00000300: 0000 00c0 d259 e43f 0000 00c0 1517 d03f
00000310: 0000 00c0 48da b4bf 0000 00a0 e5e7 e33f
00000320: 0000 0080 c06a c83f 0000 00c0 9147 b9bf
00000330: 0000 0060 cb76 e73f 0000 00e0 55ee db3f
00000340: 0000 00e0 298c a6bf 0000 0060 cb1c e73f
00000350: 0000 0080 a28a d43f 0000 0000 06d4 b2bf
00000360: 0000 0040 fce5 e63f 0000 00e0 a394 cf3f
00000370: 0000 0060 1db0 b8bf 0000 00e0 a6a8 e63f
00000380: 0000 0080 d164 c73f 0000 0080 cdd8 bcbf
00000390: 0000 0000 3f1b e93f 0000 0080 52b3 dc3f
000003a0: 0000 00e0 e354 adbf 0000 0080 2f8b e93f
000003b0: 0000 00c0 90a0 d63f 0000 0080 03fb b5bf
000003c0: 0000 0000 e7e8 e93f 0000 0000 5ab1 d23f
000003d0: 0000 00c0 7fe9 b9bf 0000 0040 632d ea3f
000003e0: 0000 0040 4634 ce3f 0000 0060 a2a4 bcbf
000003f0: 0000 0020 64e8 e83f 0000 0080 9baa e63f
00000400: 0000 0000 bce0 a03e 0000 0000 ee30 e63f
00000410: 0000 0040 d489 e63f 0000 0060 129d a3bf
00000420: 0000 00c0 52b6 e33f 0000 00c0 e8e4 e43f
00000430: 0000 0080 8444 adbf 0000 0040 830d e23f
00000440: 0000 0020 51dd e23f 0000 00e0 69bb b2bf
00000450: 0000 0020 f48f e03f 0000 00a0 634a e13f
00000460: 0000 0040 79d9 b6bf 0000 0020 4c7a e43f
00000470: 0000 0040 bcdf de3f 0000 0080 f253 a0bf
00000480: 0000 0080 95ee e23f 0000 0060 e80e d93f
00000490: 0000 00e0 e0fa aebf 0000 00e0 a2e8 e13f
000004a0: 0000 0040 409e d53f 0000 0020 61ac b5bf
000004b0: 0000 0000 e617 e13f 0000 00e0 28a2 d23f
000004c0: 0000 0000 3a2b babf 0000 0080 e6f1 e53f
000004d0: 0000 00a0 6198 dc3f 0000 0040 960b a2bf
000004e0: 0000 00e0 4bef e43f 0000 0080 94e0 d43f
000004f0: 0000 0080 88d3 aebf 0000 00c0 c850 e43f
00000500: 0000 0060 b51c d03f 0000 0080 b226 b5bf
00000510: 0000 0080 b3dd e33f 0000 0080 2f51 c83f
00000520: 0000 00e0 3175 b9bf 0000 0060 b67a e73f
00000530: 0000 0020 6503 dc3f 0000 0000 4be5 a6bf
00000540: 0000 0040 5d1f e73f 0000 00c0 6d8c d43f
00000550: 0000 0020 8701 b3bf 0000 0080 66e3 e63f
00000560: 0000 00a0 9377 cf3f 0000 0020 9e94 b8bf
00000570: 0000 0020 97a4 e63f 0000 0040 ed2c c73f
00000580: 0000 00c0 e673 bcbf 0000 00c0 6c20 e93f
00000590: 0000 0020 4ec0 dc3f 0000 00e0 0870 adbf
000005a0: 0000 0060 8989 e93f 0000 00e0 f8ae d63f
000005b0: 0000 0080 85dc b5bf 0000 0020 2bdb e93f
000005c0: 0000 0000 6bb1 d23f 0000 00a0 b870 b9bf
000005d0: 0000 00a0 7714 ea3f 0000 0040 971c ce3f
000005e0: 0000 0040 f8d8 bbbf 0000 0040 45e6 e83f
000005f0: 0000 0000 7fb3 e63f 0000 0020 1f83 a03e
00000600: 0000 00c0 cf36 e63f 0000 0060 f988 e63f
00000610: 0000 00a0 4d94 a2bf 0000 00a0 f5bc e33f
00000620: 0000 00a0 cfda e43f 0000 0000 cad8 abbf
00000630: 0000 00a0 1911 e23f 0000 0040 4dd8 e23f
00000640: 0000 00c0 42eb b1bf 0000 0000 6094 e03f
00000650: 0000 0000 464b e13f 0000 0060 02f0 b5bf
00000660: 0000 0020 027b e43f 0000 0060 bbde de3f
00000670: 0000 0080 fb9b 9ebf 0000 0060 bef1 e23f
00000680: 0000 00e0 8511 d93f 0000 0060 9c96 adbf
00000690: 0000 0020 e4eb e13f 0000 0060 539d d53f
000006a0: 0000 0080 77d5 b4bf 0000 00c0 a51b e13f
000006b0: 0000 00c0 73a0 d23f 0000 0020 243c b9bf
000006c0: 0000 00c0 83f3 e53f 0000 0060 8697 dc3f
000006d0: 0000 0000 8765 a1bf 0000 0080 eef3 e43f
000006e0: 0000 0060 3fdd d43f 0000 0000 e6c5 adbf
000006f0: 0000 00a0 7a56 e43f 0000 0080 0b18 d03f
00000700: 0000 0060 6f76 b4bf 0000 0060 25e4 e33f
00000710: 0000 0000 2153 c83f 0000 0060 e5a2 b8bf
00000720: 0000 00c0 3f7e e73f 0000 0080 3806 dc3f
00000730: 0000 0080 f681 a6bf 0000 0060 9b20 e73f
00000740: 0000 0000 6d8b d43f 0000 00e0 d495 b2bf
00000750: 0000 0060 1be2 e63f 0000 0080 7681 cf3f
00000760: 0000 00e0 8bf7 b7bf 0000 0000 a3a0 e63f
00000770: 0000 0080 364a c73f 0000 00e0 57b6 bbbf
00000780: 0000 0060 0e24 e93f 0000 0000 99cd dc3f
00000790: 0000 0040 1a3b adbf 0000 0060 9090 e93f
000007a0: 0000 0020 d4c3 d63f 0000 00a0 6e90 b5bf
000007b0: 0000 00c0 b0e2 e93f 0000 0000 25c1 d23f
000007c0: 0000 0000 16fe b8bf 0000 0000 eb1c ea3f
000007d0: 0000 0080 3c37 ce3f 0000 0060 d847 bbbf
000007e0: 0000 0040 41ea e83f 0000 0040 ffaf e63f
000007f0: 0000 0000 9989 a03e 0000 00c0 a636 e63f
0.77662193775177 0.7070659399032593 4.704847356151731e-07 0.6897622346878052 0.7008637189865112 -0.03223200887441635 0.6145424246788025 0.6453877687454224
-0.04687665030360222 0.5642982125282288 0.5825957655906677 -0.06020284816622734 0.5183912515640259 0.5385382771492004 -0.07380279898643494 0.6395381093025208
0.47835996747016907 -0.019583098590373993 0.5919712781906128 0.39025604724884033 -0.043346770107746124 0.561180591583252 0.3378845453262329 -0.06484752148389816
0.537203848361969 0.293681800365448 -0.08076458424329758 0.6843451857566833 0.4428636431694031 -0.024959437549114227 0.6537274718284607 0.32377946376800537
-0.045263927429914474 0.635021984577179 0.25043320655822754 -0.0648890882730484 0.6217857599258423 0.19233843684196472 -0.07970409095287323 0.7317839860916138
0.43424752354621887 -0.036540333181619644 0.7202902436256409 0.3184203505516052 -0.0628887340426445 0.7130329012870789 0.24496422708034515 -0.08322467654943466
0.7053788900375366 0.18238800764083862 -0.09741619974374771 0.7822723984718323 0.44683903455734253 -0.05115903168916702 0.7961301803588867 0.3540465235710144
-0.07742317765951157 0.806699812412262 0.29371634125709534 -0.09071651846170425 0.8141108751296997 0.23867511749267578 -0.09962040930986404 0.7802660465240479
0.7080447673797607 4.935375841341738e-07 0.6937546730041504 0.7046399712562561 -0.03809991478919983 0.61712646484375 0.6519474983215332 -0.05673133581876755
0.5663340091705322 0.5895106792449951 -0.07268739491701126 0.5196329951286316 0.5392551422119141 -0.0887461006641388 0.6398273706436157 0.48114147782325745
-0.030494749546051025 0.5922979116439819 0.39142900705337524 -0.05876059830188751 0.5613803863525391 0.3384084403514862 -0.0831005871295929 0.5364956855773926
0.2929975986480713 -0.10097388923168182 0.68550044298172 0.44523102045059204 -0.03409460932016373 0.6545717120170593 0.32602909207344055 -0.058792416006326675
0.6359647512435913 0.25140899419784546 -0.08145575225353241 0.6220577359199524 0.19075781106948853 -0.09874831140041351 0.7332512736320496 0.43642184138298035
-0.044038113206624985 0.7222649455070496 0.320961594581604 -0.07354772090911865 0.7155743837356567 0.24672363698482513 -0.09643729776144028 0.7080873847007751
0.1827642321586609 -0.11268314719200134 0.7845759391784668 0.4484449625015259 -0.057288285344839096 0.7982404232025146 0.35355013608932495 -0.08586141467094421
0.8096804618835449 0.29207468032836914 -0.10121916234493256 0.8180404901504517 0.23597028851509094 -0.1118871197104454 0.7783680558204651 0.7083261013031006
5.029996827943251e-07 0.6934728622436523 0.7043248414993286 -0.038307737559080124 0.6160062551498413 0.6529430150985718 -0.05716337263584137 0.5641494989395142
0.5895162224769592 -0.0731722041964531 0.5175724625587463 0.540330708026886 -0.08925588428974152 0.6399288773536682 0.48240572214126587 -0.031890466809272766
0.5916240215301514 0.3915348947048187 -0.06050780043005943 0.5596479773521423 0.3377838730812073 -0.08466155081987381 0.5341672897338867 0.2911474406719208
-0.10222208499908447 0.6857788562774658 0.4468006193637848 -0.0352446511387825 0.6542109847068787 0.3262072801589966 -0.06020762026309967 0.6348613500595093
0.25175222754478455 -0.08262172341346741 0.6208131313323975 0.18997758626937866 -0.09944450110197067 0.7337295413017273 0.43770721554756165 -0.04471811652183533
0.7225786447525024 0.3210710883140564 -0.07424206286668777 0.7152588367462158 0.24583669006824493 -0.09601772576570511 0.7075915932655334 0.18105855584144592
-0.11114351451396942 0.7852081060409546 0.4492373764514923 -0.05749538168311119 0.7980391383171082 0.3544294536113739 -0.08539614081382751 0.8080039620399475
0.29207873344421387 -0.09937623888254166 0.81499844789505 0.23524752259254456 -0.10877944529056549 0.7781091928482056 0.7094111442565918 4.921017193737498e-07
0.6941908597946167 0.7042204737663269 -0.036287713795900345 0.6168163418769836 0.6517103314399719 -0.054388344287872314 0.564587414264679 0.5889040231704712
-0.06999604403972626 0.5181121826171875 0.5404386520385742 -0.08569350093603134 0.6400156617164612 0.48234447836875916 -0.029891900718212128 0.5920097231864929
0.3916945159435272 -0.057789694517850876 0.5600453019142151 0.3377273976802826 -0.08138224482536316 0.5346249341964722 0.291043221950531 -0.09857393056154251
0.6859759092330933 0.4467483460903168 -0.03397771716117859 0.6547768115997314 0.32600387930870056 -0.05815047025680542 0.6355565190315247 0.25146758556365967
-0.07993217557668686 0.6215998530387878 0.19003689289093018 -0.09623559564352036 0.7341612577438354 0.43787968158721924 -0.04396028816699982 0.7227303385734558
0.32100987434387207 -0.07259874790906906 0.7151009440422058 0.24613839387893677 -0.09362100809812546 0.7071089744567871 0.18195229768753052 -0.10825108736753464
0.7856513857841492 0.45004868507385254 -0.05709154158830643 0.7988969683647156 0.3557024300098419 -0.08423510938882828 0.8089221715927124 0.29303860664367676
-0.09762704372406006 0.8160300254821777 0.23606067895889282 -0.10656502097845078 0.7785955667495728 0.7089840173721313 4.928556336381007e-07 0.6941713094711304
