dataset/W/W_1.npy (npy, 15248 bytes, 1 tensors)

array f8 [30, 63]
0	0x3fea0366c0000000	0.8129152059555054
1	0x3fe6792740000000	0.7022892236709595
2	0x3e9e6489e0000000	4.5288695105227816e-07
3	0x3fe7603a60000000	0.7304965853691101
4	0x3fe633ef80000000	0.6938397884368896
5	0xbf9f8a2740000000	-0.03080045059323311
6	0x3fe4eafe20000000	0.6536856293678284
7	0x3fe4707e40000000	0.6387320756912231
8	0xbfa7555f60000000	-0.045573215931653976
9	0x3fe32ca3c0000000	0.5991991758346558
10	0x3fe2a760a0000000	0.5829318165779114
11	0xbfae054380000000	-0.05863390862941742
12	0x3fe1af3a40000000	0.5526400804519653
13	0x3fe1270c00000000	0.5360164642333984
14	0xbfb23f4860000000	-0.07127811759710312
15	0x3fe5892c40000000	0.6729947328567505
16	0x3fde1f90e0000000	0.47067663073539734
17	0xbf9578d700000000	-0.020968779921531677
18	0x3fe3ec1fe0000000	0.6225737929344177
19	0x3fd8682780000000	0.3813570737838745
20	0xbfa7363f60000000	-0.04533575102686882
21	0x3fe2e9f700000000	0.5910601615905762
22	0x3fd4f4e880000000	0.3274480104446411
23	0xbfb0f669c0000000	-0.06625996530056
24	0x3fe22771c0000000	0.5673149824142456
25	0x3fd209d640000000	0.2818503975868225
26	0xbfb4c57c00000000	-0.08113837242126465
27	0x3fe70bb100000000	0.720177173614502
28	0x3fdbc66de0000000	0.4339861571788788
29	0xbf9a0eb920000000	-0.02544678933918476
30	0x3fe609f3e0000000	0.6887149214744568
31	0x3fd42b4100000000	0.3151400089263916
32	0xbfa6474aa0000000	-0.04351266101002693
33	0x3fe5743440000000	0.6704350709915161
34	0x3fced73fc0000000	0.24094387888908386
35	0xbfaf4daae0000000	-0.06113943085074425
36	0x3fe510d0e0000000	0.6583027243614197
37	0x3fc72ec340000000	0.1811145842075348
38	0xbfb30fcf20000000	-0.0744599774479866
39	0x3fe8a8c880000000	0.7706034183502197
40	0x3fdb3285e0000000	0.4249586760997772
41	0xbfa22181e0000000	-0.03541189059615135
42	0x3fe84a3800000000	0.7590599060058594
43	0x3fd41a2a00000000	0.31409692764282227
44	0xbfad50ce20000000	-0.057257119566202164
45	0x3fe8120360000000	0.7521988749504089
46	0x3fcf3183a0000000	0.24369855225086212
47	0xbfb2b55ee0000000	-0.07307999581098557
48	0x3fe7db4200000000	0.7455148696899414
49	0x3fc78d48c0000000	0.18399915099143982
50	0xbfb5939e00000000	-0.08428370952606201
51	0x3fea589280000000	0.8233120441436768
52	0x3fdc142460000000	0.4387293756008148
53	0xbfa8cc7140000000	-0.048434771597385406
54	0x3feac122a0000000	0.8360760807991028
55	0x3fd682bc40000000	0.35172945261001587
56	0xbfb1c4ba80000000	-0.06940808892250061
57	0x3feb0b1280000000	0.8451015949249268
58	0x3fd2c38880000000	0.29318439960479736
59	0xbfb3ffba20000000	-0.07812083512544632
60	0x3feb4441e0000000	0.8520821928977966
61	0x3fcebabbe0000000	0.24007366597652435
62	0xbfb56183c0000000	-0.08351920545101166
63	0x3fe9f68700000000	0.8113436698913574
64	0x3fe67839e0000000	0.702176034450531
65	0x3e9e2d9c20000000	4.496896792716143e-07
66	0x3fe759fd00000000	0.7297348976135254
67	0x3fe641e720000000	0.6955447793006897
68	0xbf9e8bf400000000	-0.029830753803253174
69	0x3fe4e89660000000	0.6533920168876648
70	0x3fe4736660000000	0.639086902141571
71	0xbfa6527da0000000	-0.043598104268312454
72	0x3fe3242340000000	0.5981613397598267
73	0x3fe2a92580000000	0.5831477642059326
74	0xbfaca76da0000000	-0.0559648759663105
75	0x3fe1a23300000000	0.5510497093200684
76	0x3fe1356bc0000000	0.5377711057662964
77	0xbfb15e89a0000000	-0.06784877926111221
78	0x3fe57c7e80000000	0.6714470386505127
79	0x3fddf059c0000000	0.46779483556747437
80	0xbf912a8f20000000	-0.01676391251385212
81	0x3fe3d48d40000000	0.6196962594985962
82	0x3fd83826c0000000	0.3784272074699402
83	0xbfa4890400000000	-0.0401078462600708
84	0x3fe2cbf300000000	0.5873961448669434
85	0x3fd4c2a900000000	0.32438111305236816
86	0xbfaf33b440000000	-0.06094134598970413
87	0x3fe2091f80000000	0.5636136531829834
88	0x3fd1de8ba0000000	0.27920809388160706
89	0xbfb36fbbc0000000	-0.07592366635799408
90	0x3fe6f40f00000000	0.717292308807373
91	0x3fdb98c980000000	0.43120038509368896
92	0xbf95de7960000000	-0.021356483921408653
93	0x3fe5eb0660000000	0.6849395632743835
94	0x3fd4172780000000	0.3139132261276245
95	0xbfa3a9cd80000000	-0.03840486705303192
96	0x3fe54f6cc0000000	0.6659454107284546
97	0x3fcee8ba40000000	0.24147728085517883
98	0xbfac7f9f00000000	-0.055661171674728394
99	0x3fe4e554c0000000	0.6529945135116577
100	0x3fc798ec00000000	0.18435430526733398
101	0xbfb19b5ec0000000	-0.06877700984477997
102	0x3fe88a1c40000000	0.7668591737747192
103	0x3fdb02fbe0000000	0.4220571219921112
104	0xbfa03dd9c0000000	-0.03172188252210617
105	0x3fe82ec920000000	0.7557111382484436
106	0x3fd3ef0200000000	0.3114628791809082
107	0xbfab2e57c0000000	-0.05308794230222702
108	0x3fe7f9dfc0000000	0.749252200126648
109	0x3fceed0540000000	0.24160829186439514
110	0xbfb1ac17c0000000	-0.06903217732906342
111	0x3fe7c3a660000000	0.742633044719696
112	0x3fc7516ec0000000	0.18217262625694275
113	0xbfb4970860000000	-0.0804295763373375
114	0x3fea363e60000000	0.8191215395927429
115	0x3fdbe9a700000000	0.43613600730895996
116	0xbfa7201980000000	-0.045166775584220886
117	0x3feaaa2460000000	0.8332692980766296
118	0x3fd639afc0000000	0.3472709059715271
119	0xbfb0eecb80000000	-0.06614372134208679
120	0x3feb0003e0000000	0.843751847743988
121	0x3fd26eb640000000	0.28800731897354126
122	0xbfb34ad660000000	-0.07536067813634872
123	0x3feb4052c0000000	0.8516019582748413
124	0x3fcde252c0000000	0.23346933722496033
125	0xbfb4cac320000000	-0.0812189057469368
126	0x3fe9fc0a60000000	0.8120166659355164
127	0x3fe67eefc0000000	0.7029951810836792
128	0x3e9d421620000000	4.3598041088444006e-07
129	0x3fe7618440000000	0.7306538820266724
130	0x3fe644d840000000	0.6959038972854614
131	0xbf9d7fcd40000000	-0.028807837516069412
132	0x3fe4eafc60000000	0.6536847949028015
133	0x3fe471ab20000000	0.6388755440711975
134	0xbfa56281a0000000	-0.041767168790102005
135	0x3fe3255f00000000	0.5983119010925293
136	0x3fe2a47ae0000000	0.5825781226158142
137	0xbfab710da0000000	-0.05359690263867378
138	0x3fe1a12d80000000	0.5509250164031982
139	0x3fe139f9a0000000	0.5383270382881165
140	0xbfb0a625c0000000	-0.06503520905971527
141	0x3fe5852920000000	0.6725049614906311
142	0x3fddea02e0000000	0.4674079120159149
143	0xbf8ef94900000000	-0.015123911201953888
144	0x3fe3dcbf40000000	0.6206966638565063
145	0x3fd833d620000000	0.3781638443470001
146	0xbfa33da6a0000000	-0.0375797338783741
147	0x3fe2d4f740000000	0.5884968042373657
148	0x3fd4bdc9a0000000	0.32408371567726135
149	0xbfada94060000000	-0.05793191120028496
150	0x3fe2127fe0000000	0.5647582411766052
151	0x3fd1d729e0000000	0.2787575423717499
152	0xbfb29e4e40000000	-0.07272805273532867
153	0x3fe6fa6800000000	0.7180671691894531
154	0x3fdb989280000000	0.4311872720718384
155	0xbf94bd2c80000000	-0.02025289088487625
156	0x3fe5f16740000000	0.6857181787490845
157	0x3fd40f7700000000	0.3134438991546631
158	0xbfa2d6ece0000000	-0.036795999854803085
159	0x3fe555df20000000	0.6667323708534241
160	0x3fcec65860000000	0.24042801558971405
161	0xbfab977aa0000000	-0.05389006808400154
162	0x3fe4ed3380000000	0.6539552211761475
163	0x3fc766f4c0000000	0.18282946944236755
164	0xbfb12142a0000000	-0.06691376119852066
165	0x3fe88dcfa0000000	0.7673109173774719
166	0x3fdb068580000000	0.42227303981781006
167	0xbf9fd9dcc0000000	-0.031104516237974167
168	0x3fe8348100000000	0.7564091682434082
169	0x3fd3e1bf00000000	0.3106534481048584
170	0xbfaa930a80000000	-0.05190308392047882
171	0x3fe7ff6f80000000	0.7499310970306396
172	0x3fcec25180000000	0.2403051257133484
173	0xbfb152e900000000	-0.06767135858535767
174	0x3fe7c93820000000	0.7433128952980042
175	0x3fc71f1200000000	0.18063569068908691
176	0xbfb43b5ba0000000	-0.07903072983026505
177	0x3fea36d0c0000000	0.8191913366317749
178	0x3fdbefaaa0000000	0.4365030825138092
179	0xbfa70bdb80000000	-0.04501233994960785
180	0x3feaa9b0a0000000	0.8332141041755676
181	0x3fd642dd80000000	0.347831130027771
182	0xbfb0bef700000000	-0.06541389226913452
183	0x3feafbd640000000	0.843241810798645
184	0x3fd271c040000000	0.2881928086280823
185	0xbfb30a9080000000	-0.07437995076179504
186	0x3feb390340000000	0.8507095575332642
187	0x3fcdde2c80000000	0.233342707157135
188	0xbfb4862b60000000	-0.08017226308584213
189	0x3fe9f9aa80000000	0.8117268085479736
190	0x3fe68741a0000000	0.7040107846260071
191	0x3e9c4ab980000000	4.215820581521257e-07
192	0x3fe7566d40000000	0.7293001413345337
193	0x3fe63c1c20000000	0.6948376297950745
194	0xbf9eb36720000000	-0.02998124249279499
195	0x3fe4ef47c0000000	0.6542090177536011
196	0x3fe46c5700000000	0.6382250785827637
197	0xbfa67b4580000000	-0.043909236788749695
198	0x3fe3269c20000000	0.5984631180763245
199	0x3fe2a87f80000000	0.5830686092376709
200	0xbfad0beb80000000	-0.05673156678676605
201	0x3fe19757c0000000	0.5497244596481323
202	0x3fe1434960000000	0.5394636988639832
203	0xbfb1bf2640000000	-0.06932295858860016
204	0x3fe58fe0a0000000	0.6738131642341614
205	0x3fddeb8a60000000	0.4675012528896332
206	0xbf901c9ac0000000	-0.015734117478132248
207	0x3fe3f19980000000	0.6232421398162842
208	0x3fd856f6c0000000	0.3803078532218933
209	0xbfa4578a20000000	-0.03973037376999855
210	0x3fe2f2c7c0000000	0.5921362638473511
211	0x3fd4eaf480000000	0.32684051990509033
212	0xbfaf86e860000000	-0.06157613918185234
213	0x3fe2311fe0000000	0.5684966444969177
214	0x3fd1f5c180000000	0.28062474727630615
215	0xbfb3d54800000000	-0.07747316360473633
216	0x3fe7075dc0000000	0.7196491956710815
217	0x3fdba38da0000000	0.43185749650001526
218	0xbf9533edc0000000	-0.020705904811620712
219	0x3fe6015f80000000	0.6876676082611084
220	0x3fd4450b00000000	0.3167140483856201
221	0xbfa3e56420000000	-0.03885949030518532
222	0x3fe56af3a0000000	0.6693056225776672
223	0x3fcf584220000000	0.24488092958927155
224	0xbfad3c9320000000	-0.05710277333855629
225	0x3fe502de40000000	0.6566001176834106
226	0x3fc7e77040000000	0.18675044178962708
227	0xbfb22f1100000000	-0.07103067636489868
228	0x3fe89c0d00000000	0.7690491676330566
229	0x3fdb1c2600000000	0.42359304428100586
230	0xbfa02f8da0000000	-0.03161280229687691
231	0x3fe844c1e0000000	0.7583932280540466
232	0x3fd4370fc0000000	0.31586068868637085
233	0xbfab8f2fc0000000	-0.05382680147886276
234	0x3fe806e680000000	0.7508423328399658
235	0x3fcf8b8f80000000	0.24644654989242554
236	0xbfb1e13320000000	-0.06984252482652664
237	0x3fe7c6c4a0000000	0.7430136799812317
238	0x3fc7ed0880000000	0.18692117929458618
239	0xbfb4c80300000000	-0.08117693662643433
240	0x3fea470be0000000	0.8211726546287537
241	0x3fdc053f60000000	0.43782028555870056
242	0xbfa76b0520000000	-0.04573837295174599
243	0x3feab1adc0000000	0.8341892957687378
244	0x3fd65103c0000000	0.34869474172592163
245	0xbfb1237420000000	-0.06694722920656204
246	0x3feaf7e720000000	0.8427615761756897
247	0x3fd2814ea0000000	0.28914228081703186
248	0xbfb37f7ac0000000	-0.07616393268108368
249	0x3feb2870c0000000	0.8486865758895874
250	0x3fcdedab00000000	0.23381555080413818
251	0xbfb5068160000000	-0.08213051408529282
252	0x3fe9f62380000000	0.8112962245941162
253	0x3fe6865e20000000	0.7039023041725159
254	0x3e9cbcbac0000000	4.2821801571335527e-07
255	0x3fe74d90e0000000	0.7282184958457947
