dataset/W/W_2.npy (npy, 15248 bytes, 1 tensors)

array f8 [30, 63]
0	0x3fea9c7a60000000	0.8316013216972351
1	0x3fe5e3bc00000000	0.6840496063232422
2	0x3ea4564960000000	6.060915325178939e-07
3	0x3fe7979f00000000	0.7372584342956543
4	0x3fe6287be0000000	0.6924418807029724
5	0xbf9d98e300000000	-0.028903529047966003
6	0x3fe4f59580000000	0.6549785137176514
7	0x3fe5834800000000	0.6722755432128906
8	0xbfa3f471a0000000	-0.0389743335545063
9	0x3fe30a62c0000000	0.5950177907943726
10	0x3fe517ce40000000	0.6591559648513794
11	0xbfa8a39a20000000	-0.048123184591531754
12	0x3fe16161a0000000	0.5431373715400696
13	0x3fe4e94600000000	0.6534757614135742
14	0xbfacc803e0000000	-0.05621349439024925
15	0x3fe53f9f00000000	0.6640162467956543
16	0x3fddcc6a40000000	0.46560150384902954
17	0x3f80cee860000000	0.008207145147025585
18	0x3fe3804ec0000000	0.6094125509262085
19	0x3fd8b04e40000000	0.3857608437538147
20	0x3f7261e0e0000000	0.004487875383347273
21	0x3fe27ce140000000	0.5777441263198853
22	0x3fd5bac820000000	0.3395252525806427
23	0xbf79c30f60000000	-0.006289539393037558
24	0x3fe1b57680000000	0.5534012317657471
25	0x3fd34fa140000000	0.3017352223396301
26	0xbf8f2711a0000000	-0.015211236663162708
27	0x3fe6ac26a0000000	0.7085145115852356
28	0x3fdb274080000000	0.42427074909210205
29	0x3f80a3bc20000000	0.008124799467623234
30	0x3fe5738ac0000000	0.6703542470932007
31	0x3fd47aecc0000000	0.3200027346611023
32	0x3f909a4620000000	0.01621350832283497
33	0x3fe4bfaba0000000	0.6483972668647766
34	0x3fd07ad3e0000000	0.25749680399894714
35	0x3f8aaad160000000	0.013021121732890606
36	0x3fe4578620000000	0.635684072971344
37	0x3fcb91a2c0000000	0.2153819501399994
38	0x3f80d57fa0000000	0.008219716139137745
39	0x3fe83cff00000000	0.7574458122253418
40	0x3fda497de0000000	0.4107355773448944
41	0x3f2f94fce0000000	0.0002409514127066359
42	0x3fe7a5c8a0000000	0.7389872670173645
43	0x3fd3d3cec0000000	0.30980271100997925
44	0x3f42f00d60000000	0.0005779328639619052
45	0x3fe74596a0000000	0.7272446751594543
46	0x3fd05b0640000000	0.2555556893348694
47	0xbf7b8ae960000000	-0.006724273320287466
48	0x3fe6e746e0000000	0.7157320380210876
49	0x3fcb40f400000000	0.2129197120666504
50	0xbf8e068240000000	-0.014660852029919624
51	0x3fe9d6c7c0000000	0.8074682950973511
52	0x3fda944a60000000	0.4153009355068207
53	0xbf89027460000000	-0.012211713008582592
54	0x3fea242120000000	0.8169103264808655
55	0x3fd5cc8a00000000	0.340609073638916
56	0xbf93c27160000000	-0.019296428188681602
57	0x3fea4e9a20000000	0.8220949769020081
58	0x3fd33b0e80000000	0.300479531288147
59	0xbf97fbc4e0000000	-0.023421360179781914
60	0x3fea69c4a0000000	0.8254111409187317
61	0x3fd0e0aa20000000	0.26371243596076965
62	0xbf9b0ad3e0000000	-0.026408491656184196
63	0x3fea9f7d60000000	0.8319689631462097
64	0x3fe5ea67e0000000	0.6848639845848083
65	0x3ea283f060000000	5.518015200323134e-07
66	0x3fe79d2080000000	0.7379305362701416
67	0x3fe6386e00000000	0.6943883895874023
68	0xbf99aea180000000	-0.025080226361751556
69	0x3fe4f7ec40000000	0.6552640199661255
70	0x3fe5876720000000	0.6727786660194397
71	0xbfa0f271c0000000	-0.0330997034907341
72	0x3fe30eb320000000	0.5955443978309631
73	0x3fe50dc020000000	0.6579285264015198
74	0xbfa4e75d40000000	-0.0408276692032814
75	0x3fe1665e60000000	0.5437461733818054
76	0x3fe4df0b80000000	0.6522271633148193
77	0xbfa8654880000000	-0.04764772951602936
78	0x3fe52f2280000000	0.662003755569458
79	0x3fddb1b180000000	0.4639705419540405
80	0x3f8766dd40000000	0.011426666751503944
81	0x3fe3707a40000000	0.6074801683425903
82	0x3fd8a30580000000	0.38495004177093506
83	0x3f830509a0000000	0.009286952205002308
84	0x3fe27544a0000000	0.5768149495124817
85	0x3fd5b802c0000000	0.33935612440109253
86	0xbf400cec40000000	-0.0004898217739537358
87	0x3fe1b0fe20000000	0.5528555512428284
88	0x3fd34cea40000000	0.30156952142715454
89	0xbf82b77e20000000	-0.009139047004282475
90	0x3fe6a19200000000	0.7072229385375977
91	0x3fdb1ac260000000	0.42350825667381287
92	0x3f83cc3d40000000	0.009666899219155312
93	0x3fe573a000000000	0.6703643798828125
94	0x3fd49c1be0000000	0.32202813029289246
95	0x3f9428d360000000	0.01968698762357235
96	0x3fe4d15660000000	0.6505538821220398
97	0x3fd0c0fd00000000	0.2617790699005127
98	0x3f91c5af60000000	0.017355671152472496
99	0x3fe473fea0000000	0.6391595005989075
100	0x3fcc26d400000000	0.21993494033813477
101	0x3f89cb1500000000	0.012594379484653473
102	0x3fe8397260000000	0.7570125460624695
103	0x3fda563520000000	0.41151168942451477
104	0x3f41af4060000000	0.0005396904307417572
105	0x3fe7a7cf00000000	0.739234447479248
106	0x3fd4229d40000000	0.3146126866340637
107	0x3f6423b6a0000000	0.0024584357161074877
108	0x3fe74df3a0000000	0.7282655835151672
109	0x3fd0ba3a80000000	0.26136648654937744
110	0xbf7094dd60000000	-0.004048218484967947
111	0x3fe6f7c580000000	0.7177455425262451
112	0x3fcbf5cb00000000	0.2184385061264038
113	0xbf88cad380000000	-0.012105610221624374
114	0x3fe9dd4cc0000000	0.8082641363143921
115	0x3fdaca8c80000000	0.41861259937286377
116	0xbf8a58d160000000	-0.012864719144999981
117	0x3fea2d6d00000000	0.8180451393127441
118	0x3fd65318e0000000	0.34882184863090515
119	0xbf932ac4c0000000	-0.01871783658862114
120	0x3fea5f6f40000000	0.8241497278213501
121	0x3fd3e653e0000000	0.31093308329582214
122	0xbf96995be0000000	-0.02206939272582531
123	0x3fea85db40000000	0.828839898109436
124	0x3fd19b1e00000000	0.27509260177612305
125	0xbf998df040000000	-0.024955514818429947
126	0x3fea98a340000000	0.8311325311660767
127	0x3fe5a9af80000000	0.6769635677337646
128	0x3ea5051820000000	6.264418175305764e-07
129	0x3fe79f29a0000000	0.7381790280342102
130	0x3fe5fe3f20000000	0.6872859597206116
131	0xbfa05eed80000000	-0.03197424113750458
132	0x3fe4f86cc0000000	0.6553252935409546
133	0x3fe5708740000000	0.669986367225647
134	0xbfa5aa0240000000	-0.04231268912553787
135	0x3fe308c100000000	0.5948185920715332
136	0x3fe50bda80000000	0.6576969623565674
137	0xbfaa643be0000000	-0.05154597386717796
138	0x3fe157aa60000000	0.5419513583183289
139	0x3fe4cc6aa0000000	0.6499531865119934
140	0xbfae3a6d40000000	-0.059039510786533356
141	0x3fe52558a0000000	0.6608088612556458
142	0x3fddae2460000000	0.4637537896633148
143	0x3f8b3d4a20000000	0.01330049429088831
144	0x3fe3583f60000000	0.6045224070549011
145	0x3fd8d8b340000000	0.38822633028030396
146	0x3f8a4b3260000000	0.012838738970458508
147	0x3fe24f7c00000000	0.5722026824951172
148	0x3fd5f8c000000000	0.3433074951171875
149	0x3f72fc3780000000	0.00463506393134594
150	0x3fe183a6a0000000	0.5473206639289856
151	0x3fd3a2d760000000	0.306814044713974
152	0xbf644d3660000000	-0.00247822399251163
153	0x3fe694fba0000000	0.7056863903999329
154	0x3fdb192620000000	0.42340996861457825
155	0x3f8f7f0300000000	0.015378974378108978
156	0x3fe5450840000000	0.6646767854690552
157	0x3fd4cfcf20000000	0.3251836597919464
158	0x3f9c3f75a0000000	0.0275858286768198
159	0x3fe48858e0000000	0.6416439414024353
160	0x3fd10df480000000	0.26647675037384033
161	0x3f9d5ec6e0000000	0.028681857511401176
162	0x3fe418fb40000000	0.6280494928359985
163	0x3fcd2b91c0000000	0.22789213061332703
164	0x3f9bc82840000000	0.027130726724863052
165	0x3fe82b1c00000000	0.7552623748779297
166	0x3fda251480000000	0.4085131883621216
167	0x3f81a276c0000000	0.00861065648496151
168	0x3fe77c4840000000	0.7339211702346802
169	0x3fd4224260000000	0.31459102034568787
170	0x3f896d1920000000	0.01241511944681406
171	0x3fe711a680000000	0.7209045886993408
172	0x3fd0e99380000000	0.2642563581466675
173	0x3f8450a000000000	0.009919404983520508
174	0x3fe6a6f940000000	0.7078825235366821
175	0x3fccc300c0000000	0.22470101714134216
176	0x3f770b39a0000000	0.005625939462333918
177	0x3fe9d41100000000	0.8071370124816895
178	0x3fda207a80000000	0.40823233127593994
179	0xbf6d87fa80000000	-0.0036048786714673042
180	0x3fe9f74b20000000	0.81143718957901
181	0x3fd547b140000000	0.33250075578689575
182	0xbf811ce7e0000000	-0.008355914615094662
183	0x3fea101760000000	0.814464271068573
184	0x3fd297b880000000	0.29051029682159424
185	0xbf850b5220000000	-0.01027549896389246
186	0x3fea1b00c0000000	0.8157962560653687
187	0x3fd011dd80000000	0.251090407371521
188	0xbf876a9500000000	-0.011433757841587067
189	0x3fea9ddd00000000	0.8317704200744629
190	0x3fe5beac80000000	0.67952561378479
191	0x3ea236cba0000000	5.428208282864944e-07
192	0x3fe7a505a0000000	0.7388942837715149
193	0x3fe61c1600000000	0.6909284591674805
194	0xbf9a802a20000000	-0.02587953396141529
195	0x3fe4fca020000000	0.6558380722999573
196	0x3fe57f8420000000	0.6718159317970276
197	0xbfa13a7fc0000000	-0.03364943712949753
198	0x3fe30b79e0000000	0.595150887966156
199	0x3fe50800c0000000	0.6572269201278687
200	0xbfa50d31e0000000	-0.041116293519735336
201	0x3fe15e8700000000	0.5427889823913574
202	0x3fe4c865e0000000	0.6494626402854919
203	0xbfa80bf380000000	-0.046966180205345154
204	0x3fe52505e0000000	0.6607694029808044
205	0x3fddb604e0000000	0.4642345607280731
206	0x3f903d6600000000	0.015859216451644897
207	0x3fe359ba00000000	0.6047029495239258
208	0x3fd8dff2a0000000	0.3886686861515045
209	0x3f8d1bffa0000000	0.014213559217751026
210	0x3fe25518a0000000	0.5728877186775208
211	0x3fd60f28a0000000	0.344675213098526
212	0x3f74074840000000	0.004889757372438908
213	0x3fe182bce0000000	0.5472092032432556
214	0x3fd3b2e000000000	0.30779266357421875
215	0xbf6affede0000000	-0.00329586467705667
216	0x3fe69461e0000000	0.7056130766868591
217	0x3fdb12d5c0000000	0.42302459478378296
218	0x3f8ed2ace0000000	0.015050268732011318
219	0x3fe54980c0000000	0.6652225255966187
220	0x3fd4e59580000000	0.3265126943588257
221	0x3f995ea580000000	0.024775110185146332
222	0x3fe4905a40000000	0.6426211595535278
223	0x3fd145cc00000000	0.2698850631713867
224	0x3f9833e680000000	0.023635484278202057
225	0x3fe41dddc0000000	0.6286457777023315
226	0x3fcdb43840000000	0.23206236958503723
227	0x3f94de8760000000	0.020380130037665367
228	0x3fe82b1540000000	0.7552591562271118
229	0x3fda26e980000000	0.4086250066757202
230	0x3f7a4dfce0000000	0.006422031205147505
231	0x3fe77eeee0000000	0.7342447638511658
232	0x3fd42c5280000000	0.3152052164077759
233	0x3f81555da0000000	0.00846360344439745
234	0x3fe70d6d40000000	0.7203890085220337
235	0x3fd0f62900000000	0.26502442359924316
236	0x3f77c43380000000	0.005802346393465996
237	0x3fe6a202e0000000	0.7072767615318298
238	0x3fcce4bb00000000	0.225730299949646
239	0x3f59dbbcc0000000	0.0015782683622092009
240	0x3fe9dd07c0000000	0.8082312345504761
241	0x3fda4c88c0000000	0.41092127561569214
242	0xbf7c2d2840000000	-0.006879002787172794
243	0x3fe9fa22c0000000	0.8117841482162476
244	0x3fd55f97c0000000	0.33395951986312866
245	0xbf87dca6a0000000	-0.011651326902210712
246	0x3fea094720000000	0.8136325478553772
247	0x3fd28fbf00000000	0.2900235652923584
248	0xbf89a6fd20000000	-0.012525537051260471
249	0x3fea0e69c0000000	0.81425940990448
250	0x3fcfe14660000000	0.24906234443187714
251	0xbf8a8766a0000000	-0.012953569181263447
252	0x3fea848040000000	0.8286744356155396
253	0x3fe5a331e0000000	0.6761712431907654
254	0x3ea2b0b2a0000000	5.570121288656082e-07
255	0x3fe7a8b4c0000000	0.7393440008163452
