dataset/W/W_3.npy (npy, 15248 bytes, 1 tensors)

array f8 [30, 63]
000000 00 00 00 60 cd bf e9 3f 00 00 00 c0 a9 0b e7 3f
       0.804663360118866 0.720173716545105
000010 00 00 00 40 1c e4 a9 be 00 00 00 e0 c8 13 e7 3f
       -7.716135996815865e-07 0.721165120601654
000020 00 00 00 c0 15 7e e6 3f 00 00 00 a0 54 30 84 bf
       0.7028912305831909 -0.009857808239758015
000030 00 00 00 40 5d b8 e4 3f 00 00 00 40 7d de e4 3f
       0.6475054025650024 0.6521593332290649
000040 00 00 00 00 ef 93 88 bf 00 00 00 80 dc 56 e3 3f
       -0.012000910937786102 0.6043531894683838
000050 00 00 00 20 02 1b e3 3f 00 00 00 20 dc 48 94 bf
       0.5970469117164612 -0.019809188321232796
000060 00 00 00 60 92 3b e2 3f 00 00 00 20 d1 ce e1 3f
       0.569771945476532 0.5564962029457092
000070 00 00 00 60 2e 4d 99 bf 00 00 00 c0 5c 11 e6 3f
       -0.02470848523080349 0.6896194219589233
000080 00 00 00 60 07 2f e1 3f 00 00 00 40 b0 ab 96 3f
       0.5369908213615417 0.02213931456208229
000090 00 00 00 a0 78 69 e5 3f 00 00 00 40 ca e2 de 3f
       0.6691249012947083 0.4825921654701233
0000a0 00 00 00 a0 8c 2b 82 bf 00 00 00 60 ec c9 e5 3f
       -0.00887212622910738 0.6808988451957703
0000b0 00 00 00 a0 79 8f e1 3f 00 00 00 40 a8 f8 9e bf
       0.5487640500068665 -0.030245427042245865
0000c0 00 00 00 e0 3a 48 e6 3f 00 00 00 40 93 78 e3 3f
       0.6963171362876892 0.6084686517715454
0000d0 00 00 00 40 78 57 a3 bf 00 00 00 e0 0f 76 e7 3f
       -0.03777671605348587 0.7331618666648865
0000e0 00 00 00 c0 01 7b e0 3f 00 00 00 e0 8c 33 8e 3f
       0.5150154829025269 0.01474676188081503
0000f0 00 00 00 20 8a c5 e6 3f 00 00 00 c0 ac 1e de 3f
       0.7116137146949768 0.4706222414970398
000100 00 00 00 e0 7b 00 96 bf 00 00 00 20 1e 38 e7 3f
       -0.021486220881342888 0.7256003022193909
000110 00 00 00 a0 08 cf e1 3f 00 00 00 80 97 ad a2 bf
       0.5565226674079895 -0.036480650305747986
000120 00 00 00 20 cb c8 e7 3f 00 00 00 60 6f ce e3 3f
       0.74326092004776 0.6189495921134949
000130 00 00 00 60 46 cf a1 bf 00 00 00 c0 47 e3 e8 3f
       -0.034784507006406784 0.7777441740036011
000140 00 00 00 60 79 14 e0 3f 00 00 00 20 13 5c 55 3f
       0.5024992823600769 0.0013036906020715833
000150 00 00 00 40 d3 32 e8 3f 00 00 00 c0 7a e4 dd 3f
       0.7562042474746704 0.4670702815055847
000160 00 00 00 c0 21 19 a1 bf 00 00 00 00 63 73 e8 3f
       -0.033394865691661835 0.7640852928161621
000170 00 00 00 00 11 8c e1 3f 00 00 00 40 5c 3b a0 bf
       0.5483479499816895 -0.031702883541584015
000180 00 00 00 80 6f da e8 3f 00 00 00 80 28 5c e3 3f
       0.7766644954681396 0.6049997806549072
000190 00 00 00 60 49 6a 92 bf 00 00 00 60 76 68 ea 3f
       -0.01798357628285885 0.8252517580986023
0001a0 00 00 00 a0 2c 05 e0 3f 00 00 00 80 5c 3f 8a bf
       0.5006316304206848 -0.012816164642572403
0001b0 00 00 00 80 44 9e e9 3f 00 00 00 c0 ed b1 dd 3f
       0.8005697727203369 0.4639849066734314
0001c0 00 00 00 a0 87 9d a0 bf 00 00 00 80 9d 87 e9 3f
       -0.03245185688138008 0.797804594039917
0001d0 00 00 00 40 3e e8 e0 3f 00 00 00 80 09 c0 98 bf
       0.5283499956130981 -0.02417006343603134
0001e0 00 00 00 40 88 b9 e9 3f 00 00 00 40 76 6d e2 3f
       0.8038979768753052 0.5758620500564575
0001f0 00 00 00 20 1a 02 84 bf 00 00 00 a0 d0 c1 e9 3f
       -0.00976963434368372 0.8049090504646301
000200 00 00 00 c0 dd 03 e7 3f 00 00 00 60 9e 3f a8 be
       0.7192219495773315 -7.22661923191481e-07
000210 00 00 00 20 73 11 e7 3f 00 00 00 60 d5 7d e6 3f
       0.7208800911903381 0.7028605341911316
000220 00 00 00 a0 25 c5 88 bf 00 00 00 20 48 b6 e4 3f
       -0.012094778008759022 0.6472511887550354
000230 00 00 00 c0 b3 da e4 3f 00 00 00 a0 73 26 91 bf
       0.651697039604187 -0.01674824394285679
000240 00 00 00 40 43 5a e3 3f 00 00 00 80 6a 11 e3 3f
       0.6047683954238892 0.5958759784698486
000250 00 00 00 c0 52 55 9b bf 00 00 00 60 65 3a e2 3f
       -0.026692669838666916 0.5696284174919128
000260 00 00 00 60 b0 bf e1 3f 00 00 00 00 c7 1f a1 bf
       0.5546495318412781 -0.0334455668926239
000270 00 00 00 80 cd 08 e6 3f 00 00 00 60 8b 25 e1 3f
       0.6885745525360107 0.5358330607414246
000280 00 00 00 60 ef 40 92 3f 00 00 00 c0 07 74 e5 3f
       0.017825832590460777 0.6704138517379761
000290 00 00 00 c0 0f 88 de 3f 00 00 00 60 be ad 8f bf
       0.47705453634262085 -0.015468108467757702
0002a0 00 00 00 40 ec e7 e5 3f 00 00 00 e0 46 5a e1 3f
       0.6845608949661255 0.5422701239585876
0002b0 00 00 00 c0 8a d6 a3 bf 00 00 00 c0 f3 71 e6 3f
       -0.03874620050191879 0.701410174369812
0002c0 00 00 00 a0 0d 64 e3 3f 00 00 00 a0 c8 27 a8 bf
       0.6059635281562805 -0.04717852547764778
0002d0 00 00 00 60 e9 6e e7 3f 00 00 00 40 41 78 e0 3f
       0.7322890162467957 0.5146795511245728
0002e0 00 00 00 60 64 6a 86 3f 00 00 00 40 a2 d6 e6 3f
       0.010945114307105541 0.7137004137039185
0002f0 00 00 00 40 18 f7 dd 3f 00 00 00 a0 c0 c5 9b bf
       0.4682064652442932 -0.02712155319750309
000300 00 00 00 a0 dd 4f e7 3f 00 00 00 c0 92 ab e1 3f
       0.7284992337226868 0.5521939992904663
000310 00 00 00 80 ea 38 a6 bf 00 00 00 e0 b9 db e7 3f
       -0.043402984738349915 0.745572030544281
000320 00 00 00 c0 ad ca e3 3f 00 00 00 c0 96 c9 a5 bf
       0.6184910535812378 -0.042553626000881195
000330 00 00 00 00 96 d8 e8 3f 00 00 00 e0 45 14 e0 3f
       0.7764387130737305 0.5024747252464294
000340 00 00 00 c0 71 0d 62 bf 00 00 00 20 ec 43 e8 3f
       -0.0022036763839423656 0.7582913041114807
000350 00 00 00 60 d8 ce dd 3f 00 00 00 80 0a 48 a3 bf
       0.4657498300075531 -0.03765900433063507
000360 00 00 00 a0 0e 84 e8 3f 00 00 00 00 0c 75 e1 3f
       0.7661202549934387 0.5455379486083984
000370 00 00 00 60 77 e5 a2 bf 00 00 00 80 3e e4 e8 3f
       -0.03690693899989128 0.7778618335723877
000380 00 00 00 80 ea 5d e3 3f 00 00 00 40 1a 8d 98 bf
       0.6052143573760986 -0.023975763469934464
000390 00 00 00 00 70 5a ea 3f 00 00 00 00 45 02 e0 3f
       0.8235397338867188 0.500277042388916
0003a0 00 00 00 c0 ef c7 90 bf 00 00 00 00 5a b1 e9 3f
       -0.0163876973092556 0.8028993606567383
0003b0 00 00 00 c0 55 83 dd 3f 00 00 00 00 92 38 a3 bf
       0.46114104986190796 -0.037540972232818604
0003c0 00 00 00 a0 e3 9a e9 3f 00 00 00 c0 2d cd e0 3f
       0.800157368183136 0.5250462293624878
0003d0 00 00 00 40 2d 52 9f bf 00 00 00 00 ee c4 e9 3f
       -0.03058691695332527 0.8052892684936523
0003e0 00 00 00 40 75 67 e2 3f 00 00 00 00 33 66 91 bf
       0.5751291513442993 -0.016991421580314636
0003f0 00 00 00 a0 a8 b9 e9 3f 00 00 00 00 42 0d e7 3f
       0.803913414478302 0.7203683853149414
000400 00 00 00 60 36 4e a9 be 00 00 00 e0 d8 28 e7 3f
       -7.541631816820882e-07 0.7237362265586853
000410 00 00 00 40 fe 94 e6 3f 00 00 00 e0 3e 53 87 bf
       0.7056876420974731 -0.011389247141778469
000420 00 00 00 20 8b c9 e4 3f 00 00 00 00 18 b7 e4 3f
       0.649602472782135 0.6473503112792969
000430 00 00 00 60 84 5f 8e bf 00 00 00 20 27 72 e3 3f
       -0.014830621890723705 0.6076846718788147
000440 00 00 00 a0 5c ee e2 3f 00 00 00 40 15 c1 97 bf
       0.5915969014167786 -0.023197490721940994
000450 00 00 00 80 c4 57 e2 3f 00 00 00 80 37 ac e1 3f
       0.5732138156890869 0.5522725582122803
000460 00 00 00 a0 4e 12 9d bf 00 00 00 20 76 11 e6 3f
       -0.028390148654580116 0.6896315217018127
000470 00 00 00 20 86 e0 e0 3f 00 00 00 40 77 56 92 3f
       0.527407705783844 0.017907965928316116
000480 00 00 00 60 40 78 e5 3f 00 00 00 a0 b9 20 de 3f
       0.6709291338920593 0.4707473814487457
000490 00 00 00 60 e1 bb 8a bf 00 00 00 20 f6 dd e5 3f
       -0.01305366586893797 0.6833449006080627
0004a0 00 00 00 40 60 45 e1 3f 00 00 00 80 92 c8 a1 bf
       0.539718747138977 -0.0347333699464798
0004b0 00 00 00 a0 4b 58 e6 3f 00 00 00 60 b6 49 e3 3f
       0.6982782483100891 0.6027480959892273
0004c0 00 00 00 00 dd 9c a5 bf 00 00 00 c0 9b 6f e7 3f
       -0.04221239686012268 0.7323740720748901
0004d0 00 00 00 c0 d5 46 e0 3f 00 00 00 00 28 ec 87 3f
       0.5086468458175659 0.011680901050567627
0004e0 00 00 00 40 47 d0 e6 3f 00 00 00 40 98 f1 dd 3f
       0.712924599647522 0.4678707718849182
0004f0 00 00 00 a0 75 a9 96 bf 00 00 00 40 14 49 e7 3f
       -0.02213081158697605 0.7276707887649536
000500 00 00 00 a0 f1 ab e1 3f 00 00 00 80 22 87 a2 bf
       0.5522392392158508 -0.036187246441841125
000510 00 00 00 e0 20 cb e7 3f 00 00 00 60 ff aa e3 3f
       0.7435459494590759 0.6146237254142761
000520 00 00 00 80 d2 ad a1 bf 00 00 00 c0 6a d6 e8 3f
       -0.03452928364276886 0.7761739492416382
000530 00 00 00 c0 0e e5 df 3f 00 00 00 00 30 19 40 bf
       0.49835556745529175 -0.0004912838339805603
000540 00 00 00 00 41 30 e8 3f 00 00 00 00 17 de dd 3f
       0.7558903694152832 0.46668028831481934
000550 00 00 00 e0 73 0e a0 bf 00 00 00 a0 aa 6e e8 3f
       -0.031360264867544174 0.7635090947151184
000560 00 00 00 a0 c7 71 e1 3f 00 00 00 00 c3 df 9d bf
       0.5451391339302063 -0.029173895716667175
000570 00 00 00 40 58 c5 e8 3f 00 00 00 40 93 46 e3 3f
       0.7740899324417114 0.6023651361465454
000580 00 00 00 e0 19 0c 91 bf 00 00 00 20 c9 54 ea 3f
       -0.01664772443473339 0.8228498101234436
000590 00 00 00 40 b2 d5 df 3f 00 00 00 20 1f 29 8c bf
       0.49741798639297485 -0.013750308193266392
0005a0 00 00 00 60 30 9a e9 3f 00 00 00 20 82 ad dd 3f
       0.8000718951225281 0.4637151062488556
0005b0 00 00 00 80 6f 32 a0 bf 00 00 00 00 6f 84 e9 3f
       -0.03163479268550873 0.7974162101745605
0005c0 00 00 00 00 cb f1 e0 3f 00 00 00 e0 5c d4 97 bf
       0.5295157432556152 -0.02327103726565838
0005d0 00 00 00 40 cf aa e9 3f 00 00 00 e0 00 95 e2 3f
       0.8021007776260376 0.5806888937950134
0005e0 00 00 00 60 ac 0a 83 bf 00 00 00 20 9c ba e9 3f
       -0.00929770153015852 0.8040295243263245
0005f0 00 00 00 40 c3 fc e6 3f 00 00 00 a0 08 02 a9 be
       0.7183548212051392 -7.452948125319381e-07
000600 00 00 00 00 7f 27 e7 3f 00 00 00 a0 a2 96 e6 3f
       0.7235713005065918 0.7058880925178528
000610 00 00 00 e0 04 2b 8d bf 00 00 00 80 c7 c6 e4 3f
       -0.014242208562791348 0.6492650508880615
000620 00 00 00 40 41 c4 e4 3f 00 00 00 20 7e 98 93 bf
       0.6489568948745728 -0.019136400893330574
000630 00 00 00 00 0d 6c e3 3f 00 00 00 e0 d2 02 e3 3f
       0.6069397926330566 0.5940946936607361
000640 00 00 00 20 72 e6 9c bf 00 00 00 c0 91 58 e2 3f
       -0.028222830966114998 0.5733116865158081
000650 00 00 00 40 65 a6 e1 3f 00 00 00 00 f2 4c a1 bf
       0.5515619516372681 -0.03379017114639282
000660 00 00 00 80 56 03 e6 3f 00 00 00 c0 34 d7 e0 3f
       0.6879074573516846 0.5262702703475952
000670 00 00 00 c0 98 0a 90 3f 00 00 00 c0 1a 74 e5 3f
       0.01566542312502861 0.6704229116439819
000680 00 00 00 e0 0d 4a de 3f 00 00 00 40 07 3b 8f bf
       0.47326990962028503 -0.015249306336045265
000690 00 00 00 80 99 ec e5 3f 00 00 00 40 0f 62 e1 3f
       0.6851317882537842 0.5432201623916626
0006a0 00 00 00 e0 cb d5 a2 bf 00 00 00 00 5d 6d e6 3f
       -0.03678738698363304 0.7008500099182129
0006b0 00 00 00 a0 e7 5d e3 3f 00 00 00 60 cd a8 a6 bf
       0.6052129864692688 -0.04425660893321037
0006c0 00 00 00 40 a3 65 e7 3f 00 00 00 e0 f4 38 e0 3f
       0.7311569452285767 0.506952702999115
0006d0 00 00 00 60 89 32 86 3f 00 00 00 e0 f1 c9 e6 3f
       0.010838578455150127 0.7121514678001404
0006e0 00 00 00 00 ae f9 dd 3f 00 00 00 40 4d 68 97 bf
       0.46836423873901367 -0.022858817130327225
0006f0 00 00 00 80 b5 4f e7 3f 00 00 00 a0 35 b5 e1 3f
       0.7284801006317139 0.5533702969551086
000700 00 00 00 00 00 c3 a2 bf 00 00 00 20 ae d5 e7 3f
       -0.03664398193359375 0.7448340058326721
000710 00 00 00 80 de af e3 3f 00 00 00 c0 92 de a1 bf
       0.6152184009552002 -0.034901224076747894
000720 00 00 00 20 9e cd e8 3f 00 00 00 e0 81 c3 df 3f
       0.7750998139381409 0.4963078200817108
000730 00 00 00 00 78 3d 20 bf 00 00 00 60 9e 28 e8 3f
       -0.00012390222400426865 0.7549583315849304
000740 00 00 00 20 b9 d5 dd 3f 00 00 00 a0 ec cf 9f bf
       0.4661696255207062 -0.03106660582125187
000750 00 00 00 e0 2b 70 e8 3f 00 00 00 a0 d8 71 e1 3f
       0.7636927962303162 0.5451472401618958
000760 00 00 00 40 de 74 9d bf 00 00 00 c0 26 cb e8 3f
       -0.028766129165887833 0.7747987508773804
000770 00 00 00 80 8a 46 e3 3f 00 00 00 c0 cf a0 90 bf
       0.6023609638214111 -0.016238447278738022
000780 00 00 00 a0 ac 4b ea 3f 00 00 00 00 ea ae df 3f
       0.8217375874519348 0.49505090713500977
000790 00 00 00 20 3b 7a 89 bf 00 00 00 e0 f4 92 e9 3f
       -0.012440168298780918 0.799189031124115
0007a0 00 00 00 60 ef 9c dd 3f 00 00 00 e0 07 b3 9f bf
       0.46270355582237244 -0.030956385657191277
0007b0 00 00 00 20 b8 84 e9 3f 00 00 00 40 21 f2 e0 3f
       0.7974510788917542 0.5295568704605103
0007c0 00 00 00 00 16 89 97 bf 00 00 00 60 9c af e9 3f
       -0.02298387885093689 0.802686870098114
0007d0 00 00 00 e0 aa 96 e2 3f 00 00 00 40 b6 c7 82 bf
       0.580892026424408 -0.009169982746243477
0007e0 00 00 00 00 d8 be e9 3f 00 00 00 80 fc ee e6 3f
       0.8045463562011719 0.7166731357574463
0007f0 00 00 00 00 99 35 ab be 00 00 00 a0 b8 3b e7 3f
       -8.109022928692866e-07 0.7260401844978333
