dataset/W/W_4.npy (npy, 15248 bytes, 1 tensors)

array f8 [30, 63]
000000 00 00 00 60 00 bf ea 3f 00 00 00 40 fc ba e7 3f
       0.8358156085014343 0.7415753602981567
000010 00 00 00 c0 6e fd a0 3e 00 00 00 20 1d 1b e8 3f
       5.063405978944502e-07 0.7533097863197327
000020 00 00 00 c0 e0 3f e7 3f 00 00 00 00 20 a0 9c bf
       0.7265475988388062 -0.027954578399658203
000030 00 00 00 c0 fd ae e5 3f 00 00 00 40 fb 20 e5 3f
       0.677611231803894 0.6602760553359985
000040 00 00 00 00 f8 ae a5 bf 00 00 00 80 85 35 e4 3f
       -0.04235053062438965 0.6315333843231201
000050 00 00 00 40 e1 5b e3 3f 00 00 00 00 7d 37 ac bf
       0.6049658060073853 -0.05511084198951721
000060 00 00 00 00 45 11 e3 3f 00 00 00 20 de 44 e2 3f
       0.595858097076416 0.5709066987037659
000070 00 00 00 a0 a2 b5 b1 bf 00 00 00 60 94 a6 e6 3f
       -0.0691777840256691 0.7078344225883484
000080 00 00 00 c0 3b 23 df 3f 00 00 00 20 b1 19 a0 bf
       0.4865254759788513 -0.03144601359963417
000090 00 00 00 40 7b 51 e5 3f 00 00 00 20 56 35 d8 3f
       0.6661964654922485 0.3782553970813751
0000a0 00 00 00 20 f2 6e af bf 00 00 00 40 a3 73 e4 3f
       -0.06139332428574562 0.6391159296035767
0000b0 00 00 00 00 1f 9c d3 3f 00 00 00 20 f1 1e b6 bf
       0.30640387535095215 -0.08640963584184647
0000c0 00 00 00 00 d2 d8 e3 3f 00 00 00 c0 86 ae cf 3f
       0.6202173233032227 0.24751362204551697
0000d0 00 00 00 e0 0e 8e ba bf 00 00 00 c0 2d 5e e8 3f
       -0.10373013466596603 0.7614964246749878
0000e0 00 00 00 20 7a e9 dc 3f 00 00 00 40 96 a1 a3 bf
       0.4517503082752228 -0.03834218531847
0000f0 00 00 00 a0 eb c1 e7 3f 00 00 00 40 f2 38 d4 3f
       0.7424219250679016 0.31597572565078735
000100 00 00 00 80 e1 da ae bf 00 00 00 e0 0d 6a e7 3f
       -0.060263678431510925 0.7316960692405701
000110 00 00 00 c0 89 89 cd 3f 00 00 00 60 e0 4f b4 bf
       0.23075982928276062 -0.07934381812810898
000120 00 00 00 00 4a 30 e7 3f 00 00 00 00 92 a8 c4 3f
       0.724644660949707 0.16139435768127441
000130 00 00 00 e0 12 f9 b7 bf 00 00 00 20 34 26 ea 3f
       -0.09364431351423264 0.8171635270118713
000140 00 00 00 20 4a 7b dc 3f 00 00 00 80 d6 64 a9 bf
       0.4450249969959259 -0.04959745705127716
000150 00 00 00 a0 fb 0b ea 3f 00 00 00 80 1f 7a d4 3f
       0.8139627575874329 0.3199537992477417
000160 00 00 00 e0 12 37 b2 bf 00 00 00 e0 1b f9 e9 3f
       -0.07115285843610764 0.8116587996482849
000170 00 00 00 00 92 1a cf 3f 00 00 00 e0 7b ca b5 bf
       0.24299836158752441 -0.08512090891599655
000180 00 00 00 20 c8 df e9 3f 00 00 00 40 c4 00 c7 3f
       0.8085671067237854 0.17971089482307434
000190 00 00 00 c0 a3 7d b8 bf 00 00 00 c0 5b fb eb 3f
       -0.09566710889339447 0.8744333982467651
0001a0 00 00 00 c0 bb b5 dd 3f 00 00 00 e0 2a 5f b0 bf
       0.4642171263694763 -0.06395214051008224
0001b0 00 00 00 a0 2d 92 ec 3f 00 00 00 c0 eb 94 d7 3f
       0.892844021320343 0.3684644103050232
0001c0 00 00 00 80 fa 25 b5 bf 00 00 00 a0 5a ed ec 3f
       -0.08261075615882874 0.9039738774299622
0001d0 00 00 00 c0 be ab d3 3f 00 00 00 60 5f 9a b6 bf
       0.3073574900627136 -0.08829303830862045
0001e0 00 00 00 20 62 2d ed 3f 00 00 00 80 d3 50 d0 3f
       0.9117899537086487 0.25493323802948
0001f0 00 00 00 20 f8 8b b7 bf 00 00 00 e0 8b f2 ea 3f
       -0.0919795110821724 0.8421077132225037
000200 00 00 00 c0 b4 3b e8 3f 00 00 00 20 db 33 95 3e
       0.7572883367538452 3.159427990340191e-07
000210 00 00 00 c0 e6 36 e8 3f 00 00 00 80 4f 4a e7 3f
       0.7567018270492554 0.7278211116790771
000220 00 00 00 a0 ae ad 9a bf 00 00 00 60 76 eb e5 3f
       -0.0260531697422266 0.6849929690361023
000230 00 00 00 a0 c0 04 e5 3f 00 00 00 00 c1 0f a5 bf
       0.6568301320075989 -0.041135817766189575
000240 00 00 00 a0 f5 74 e4 3f 00 00 00 80 5e 4b e3 3f
       0.6392772793769836 0.6029503345489502
000250 00 00 00 20 07 0a ac bf 00 00 00 00 04 41 e3 3f
       -0.05476400628685951 0.6016864776611328
000260 00 00 00 60 6c 48 e2 3f 00 00 00 a0 e4 be b1 bf
       0.5713407397270203 -0.06931904703378677
000270 00 00 00 60 69 f3 e6 3f 00 00 00 80 c4 c1 de 3f
       0.7172133326530457 0.48057663440704346
000280 00 00 00 00 51 2f 9b bf 00 00 00 c0 ca d9 e5 3f
       -0.026547685265541077 0.6828359365463257
000290 00 00 00 80 96 eb d7 3f 00 00 00 40 d6 d8 ac bf
       0.3737541437149048 -0.056341834366321564
0002a0 00 00 00 40 41 25 e5 3f 00 00 00 80 a4 93 d3 3f
       0.6607977151870728 0.3058863878250122
0002b0 00 00 00 40 8e 1f b5 bf 00 00 00 e0 65 93 e4 3f
       -0.0825127512216568 0.6429929137229919
0002c0 00 00 00 00 fa 14 d0 3f 00 00 00 80 70 e0 b9 bf
       0.2512803077697754 -0.10108092427253723
0002d0 00 00 00 e0 3c ab e8 3f 00 00 00 80 cd fd dc 3f
       0.7709030508995056 0.45299088954925537
0002e0 00 00 00 20 38 8a a1 bf 00 00 00 60 21 c7 e7 3f
       -0.03425765410065651 0.743057906627655
0002f0 00 00 00 80 98 4b d5 3f 00 00 00 80 3b 21 ae bf
       0.332738995552063 -0.05884729325771332
000300 00 00 00 c0 56 3c e7 3f 00 00 00 c0 0f e8 d0 3f
       0.7261155843734741 0.26416391134262085
000310 00 00 00 60 ea 95 b4 bf 00 00 00 40 6c ba e6 3f
       -0.08041252940893173 0.7102566957473755
000320 00 00 00 00 c3 69 ca 3f 00 00 00 40 a6 91 b8 bf
       0.2063525915145874 -0.09597243368625641
000330 00 00 00 60 30 7e ea 3f 00 00 00 60 bd d7 dc 3f
       0.8279039263725281 0.45066770911216736
000340 00 00 00 40 c3 96 a7 bf 00 00 00 a0 a2 29 ea 3f
       -0.0460721030831337 0.8175824284553528
000350 00 00 00 c0 7c 83 d5 3f 00 00 00 00 41 bf b1 bf
       0.3361503481864929 -0.0693245530128479
000360 00 00 00 e0 5e e8 e9 3f 00 00 00 40 8d f4 d0 3f
       0.8096155524253845 0.2649262547492981
000370 00 00 00 00 a1 d2 b4 bf 00 00 00 a0 45 9d e9 3f
       -0.08133894205093384 0.8004482388496399
000380 00 00 00 40 a4 16 ca 3f 00 00 00 00 87 19 b7 bf
       0.20381596684455872 -0.09023326635360718
000390 00 00 00 80 4d 5f ec 3f 00 00 00 20 53 50 de 3f
       0.8866336345672607 0.4736526310443878
0003a0 00 00 00 00 eb 1f af bf 00 00 00 80 49 a8 ec 3f
       -0.06079038977622986 0.8955428600311279
0003b0 00 00 00 a0 29 8a d8 3f 00 00 00 20 14 97 b4 bf
       0.3834327757358551 -0.0804302766919136
0003c0 00 00 00 40 3f bf ec 3f 00 00 00 40 ef dc d4 3f
       0.8983455896377563 0.32598477602005005
0003d0 00 00 00 80 96 9b b5 bf 00 00 00 00 6d bc ec 3f
       -0.0844053328037262 0.8980011940002441
0003e0 00 00 00 20 09 9e d1 3f 00 00 00 00 72 1e b6 bf
       0.2752707302570343 -0.0864020586013794
0003f0 00 00 00 40 08 eb ea 3f 00 00 00 a0 1d 1b e9 3f
       0.8411904573440552 0.7845600247383118
000400 00 00 00 80 50 de 9f 3e 00 00 00 60 c2 4d e8 3f
       4.748764013129403e-07 0.7594920992851257
000410 00 00 00 40 0e 08 e8 3f 00 00 00 e0 ae f6 97 bf
       0.7509833574295044 -0.023401958867907524
000420 00 00 00 c0 52 05 e6 3f 00 00 00 c0 0b c6 e5 3f
       0.6881498098373413 0.6804255247116089
000430 00 00 00 e0 d1 55 a3 bf 00 00 00 00 18 9e e4 3f
       -0.03776412829756737 0.6442985534667969
000440 00 00 00 40 11 3a e4 3f 00 00 00 c0 d5 11 aa bf
       0.632088303565979 -0.05091731995344162
000450 00 00 00 80 b3 84 e3 3f 00 00 00 60 fd 15 e3 3f
       0.6099488735198975 0.5964342951774597
000460 00 00 00 e0 ee ce b0 bf 00 00 00 c0 97 68 e7 3f
       -0.06565754860639572 0.7315176725387573
000470 00 00 00 a0 fe 07 e0 3f 00 00 00 20 58 a0 9d bf
       0.5009759068489075 -0.028931977227330208
000480 00 00 00 80 9e 62 e6 3f 00 00 00 a0 3f 89 d8 3f
       0.6995384693145752 0.38337698578834534
000490 00 00 00 a0 b9 14 ad bf 00 00 00 a0 93 cb e5 3f
       -0.056798744946718216 0.6811006665229797
0004a0 00 00 00 c0 c9 cb d3 3f 00 00 00 c0 84 85 b4 bf
       0.30931323766708374 -0.08016233146190643
0004b0 00 00 00 60 76 60 e5 3f 00 00 00 c0 06 e9 cf 3f
       0.6680251955986023 0.24929890036582947
0004c0 00 00 00 40 14 91 b8 bf 00 00 00 20 63 3c e9 3f
       -0.0959637314081192 0.7886214852333069
0004d0 00 00 00 20 5b 6f de 3f 00 00 00 80 73 65 a3 bf
       0.47554662823677063 -0.03788338601589203
0004e0 00 00 00 e0 19 17 e9 3f 00 00 00 e0 25 93 d5 3f
       0.7840699553489685 0.33710619807243347
0004f0 00 00 00 00 37 3d ae bf 00 00 00 e0 19 16 e9 3f
       -0.05906078219413757 0.7839478850364685
000500 00 00 00 e0 6c 3a d0 3f 00 00 00 e0 95 f6 b3 bf
       0.2535659968852997 -0.07798134535551071
000510 00 00 00 00 38 2a e9 3f 00 00 00 00 5f e1 c7 3f
       0.7864036560058594 0.18656527996063232
000520 00 00 00 e0 7e 74 b7 bf 00 00 00 e0 11 08 eb 3f
       -0.09162133187055588 0.8447350859642029
000530 00 00 00 40 9e 8d de 3f 00 00 00 20 f0 d4 a9 bf
       0.4773936867713928 -0.050452712923288345
000540 00 00 00 c0 b3 27 eb 3f 00 00 00 00 10 6b d6 3f
       0.848596453666687 0.3502845764160156
000550 00 00 00 a0 d2 13 b2 bf 00 00 00 60 89 43 eb 3f
       -0.07061497122049332 0.8519942164421082
000560 00 00 00 80 10 54 d1 3f 00 00 00 c0 05 d5 b4 bf
       0.2707558870315552 -0.08137546479701996
000570 00 00 00 00 38 66 eb 3f 00 00 00 80 1c 49 ca 3f
       0.8562278747558594 0.2053561806678772
000580 00 00 00 80 dc c3 b6 bf 00 00 00 00 17 c5 ec 3f
       -0.08892610669136047 0.8990588188171387
000590 00 00 00 80 48 12 e0 3f 00 00 00 c0 a4 c3 b0 bf
       0.5022318363189697 -0.06548528373241425
0005a0 00 00 00 c0 8f 09 ed 3f 00 00 00 a0 47 97 d9 3f
       0.9074171781539917 0.39985838532447815
0005b0 00 00 00 a0 1a ec b4 bf 00 00 00 80 20 2f ed 3f
       -0.08172766119241714 0.9120028018951416
0005c0 00 00 00 e0 97 7c d5 3f 00 00 00 40 7e 18 b5 bf
       0.33572956919670105 -0.0824049860239029
0005d0 00 00 00 40 d3 48 ed 3f 00 00 00 00 af 19 d2 3f
       0.9151397943496704 0.2828176021575928
0005e0 00 00 00 a0 f0 f1 b4 bf 00 00 00 c0 c1 ac ea 3f
       -0.08181671053171158 0.8335884809494019
0005f0 00 00 00 a0 e5 43 e9 3f 00 00 00 e0 4d 1c a0 3e
       0.7895382046699524 4.801322006642295e-07
000600 00 00 00 40 47 24 e8 3f 00 00 00 e0 ea 08 e8 3f
       0.754428505897522 0.751088559627533
000610 00 00 00 e0 b2 b6 97 bf 00 00 00 60 03 00 e6 3f
       -0.0231578778475523 0.6875016093254089
000620 00 00 00 c0 fd b9 e5 3f 00 00 00 40 15 54 a3 bf
       0.678954005241394 -0.03775087743997574
000630 00 00 00 40 4e 9c e4 3f 00 00 00 a0 2a 31 e4 3f
       0.6440802812576294 0.6310017704963684
000640 00 00 00 e0 31 8f aa bf 00 00 00 40 5f 73 e3 3f
       -0.051873739808797836 0.6078335046768188
000650 00 00 00 40 9b 19 e3 3f 00 00 00 60 a1 6b b1 bf
       0.596875786781311 -0.06804855912923813
000660 00 00 00 60 f5 72 e7 3f 00 00 00 20 3a 20 e0 3f
       0.7327830195426941 0.5039339661598206
000670 00 00 00 e0 c2 5e 9a bf 00 00 00 e0 63 5c e6 3f
       -0.0257521104067564 0.6987780928611755
000680 00 00 00 40 97 f2 d8 3f 00 00 00 c0 9f 68 ab bf
       0.3898065686225891 -0.053532592952251434
000690 00 00 00 a0 97 b8 e5 3f 00 00 00 40 48 47 d4 3f
       0.6787832379341125 0.3168507218360901
0006a0 00 00 00 00 96 e5 b3 bf 00 00 00 40 68 45 e5 3f
       -0.07772195339202881 0.6647225618362427
0006b0 00 00 00 00 96 6e d0 3f 00 00 00 a0 b1 34 b8 bf
       0.25674962997436523 -0.09455404430627823
0006c0 00 00 00 20 dc 42 e9 3f 00 00 00 c0 5c 9a de 3f
       0.7894116044044495 0.47817152738571167
0006d0 00 00 00 a0 49 55 a2 bf 00 00 00 e0 d3 29 e9 3f
       -0.035806942731142044 0.7863559126853943
0006e0 00 00 00 e0 ac b2 d5 3f 00 00 00 c0 ba df ac bf
       0.3390304744243622 -0.05639442056417465
0006f0 00 00 00 60 a8 22 e9 3f 00 00 00 20 59 40 d0 3f
       0.7854806780815125 0.2539274990558624
000700 00 00 00 e0 b0 a0 b3 bf 00 00 00 60 07 2d e9 3f
       -0.07667069882154465 0.7867466807365417
000710 00 00 00 00 3a b3 c7 3f 00 00 00 60 57 7d b7 bf
       0.18515706062316895 -0.09175630658864975
000720 00 00 00 40 f7 05 eb 3f 00 00 00 60 88 de de 3f
       0.8444782495498657 0.482332319021225
000730 00 00 00 e0 82 76 a9 bf 00 00 00 a0 55 3c eb 3f
       -0.04973229393362999 0.8511150479316711
000740 00 00 00 40 f3 c5 d6 3f 00 00 00 e0 e0 ce b1 bf
       0.35583192110061646 -0.06956296414136887
000750 00 00 00 00 b6 6b eb 3f 00 00 00 c0 79 b1 d1 3f
       0.856898307800293 0.2764572501182556
000760 00 00 00 20 fd 1d b5 bf 00 00 00 20 5f 93 eb 3f
       -0.08248884230852127 0.8617396950721741
000770 00 00 00 40 e2 d5 ca 3f 00 00 00 e0 6a 97 b7 bf
       0.20965221524238586 -0.09215419739484787
000780 00 00 00 00 72 b7 ec 3f 00 00 00 00 68 64 e0 3f
       0.8973932266235352 0.5122566223144531
000790 00 00 00 00 57 f3 b0 bf 00 00 00 c0 56 30 ed 3f
       -0.06621307134628296 0.9121507406234741
0007a0 00 00 00 c0 15 8b da 3f 00 00 00 40 04 f6 b4 bf
       0.41473907232284546 -0.0818789154291153
0007b0 00 00 00 20 71 77 ed 3f 00 00 00 40 f0 9e d6 3f
       0.9208303093910217 0.35345083475112915
0007c0 00 00 00 40 a2 5b b5 bf 00 00 00 c0 46 a5 ed 3f
       -0.08342947065830231 0.9264253377914429
0007d0 00 00 00 c0 9f 50 d3 3f 00 00 00 80 e9 88 b5 bf
       0.3017958998680115 -0.08412036299705505
0007e0 00 00 00 20 3e 84 ea 3f 00 00 00 c0 1f b1 ea 3f
       0.8286429047584534 0.834121584892273
0007f0 00 00 00 40 e5 12 9c 3e 00 00 00 80 0f e8 e7 3f
       4.1833237673927215e-07 0.7470777034759521
